ddqn/model/dqn.pt (torch, 138400 bytes, 6 tensors)

fc1.weight f4 [256, 2]
000000 69 4c d8 3e 80 f8 a5 c0 46 d3 16 3f c6 55 94 c0
       0.42245796 -5.1865845 0.5891613 -4.6354704
000010 7b 61 39 bf 66 05 c4 bf 2a 36 02 be 46 b1 a4 3e
       -0.7241437 -1.5314147 -0.12715974 0.321665
000020 4e 60 80 bf b0 47 9d c0 b1 eb c9 3c 1f 76 95 c0
       -1.002939 -4.915001 0.02464852 -4.670669
000030 df 0c 0b 3d 91 17 38 40 02 13 34 3e 70 0b 7e 3c
       0.03394782 2.8764384 0.17585376 0.015505657
000040 9d 03 31 be 27 c5 59 c0 4d 10 43 bf e5 0c 12 40
       -0.17286535 -3.4026582 -0.7619675 2.282037
000050 55 35 11 be e9 97 09 3f 3a ec 6d 3d 3a 66 e6 40
       -0.14180501 0.5374742 0.05808661 7.199979
000060 39 20 3a bf fd af f7 bf d0 3e ab be e8 32 d8 c0
       -0.7270542 -1.9350582 -0.3344636 -6.756214
000070 0c 90 de 3e 7a e7 2e 3f 3b 9c 20 bf b3 b8 18 c0
       0.43469274 0.68321955 -0.6273839 -2.3862731
000080 34 eb a3 3e 27 4a a1 40 e9 dc 5d be 44 5b 9f 40
       0.32015383 5.040302 -0.21666302 4.979891
000090 ef c6 20 3b 37 60 6c bf 4f e0 39 3d 75 e5 93 3e
       0.0024532636 -0.9233431 0.045379933 0.28886
0000a0 a2 15 b8 be 8e 47 74 40 5f 33 8f 3d e0 b3 8c 40
       -0.35954005 3.8168674 0.0699222 4.3969574
0000b0 8b bc e5 be 43 bb 4d c0 11 0a e9 be 7f 6c 5a 40
       -0.4487041 -3.2145545 -0.45515493 3.412872
0000c0 d1 51 bb bd 9e 4d 27 bf 24 ed 28 bf 6b 6e f9 bf
       -0.091464646 -0.6535281 -0.6598685 -1.9486822
0000d0 1c 21 f8 be 40 41 51 c0 94 ab 65 bf 03 3f 80 bf
       -0.4846276 -3.2696075 -0.8971493 -1.001923
0000e0 d7 8a 6e bf 31 11 e5 bf b6 2a 88 bf 02 48 02 c0
       -0.931806 -1.7895871 -1.0638034 -2.035645
0000f0 5a f3 d1 3e 7f e0 69 3c cb dc 5a be 37 6e 4f c0
       0.41005975 0.014274715 -0.21373288 -3.241102
000100 b3 48 92 bd 55 86 3e c0 6b 8a 67 3f 35 51 1f c0
       -0.071427725 -2.976949 0.90445584 -2.4893315
000110 5b a8 60 bf f2 ea 93 bf 86 fe dd bc 7d 1f 3d 3e
       -0.8775689 -1.1556075 -0.027098905 0.18469043
000120 56 73 87 bc f9 8d 37 c1 32 ee c4 3e a3 ad 33 3f
       -0.016534489 -11.472161 0.3846298 0.70186824
000130 f6 18 66 3f 87 4a a2 bd 68 1e 4d bf 61 c4 b4 bf
       0.8988184 -0.07924371 -0.8012452 -1.412243
000140 0c 23 b4 be 6d 17 39 c0 65 c3 0c 3f 92 5f 90 40
       -0.3518299 -2.8920548 0.5498565 4.5116663
000150 c9 f5 20 bf b8 cc 7a c0 bf 97 49 bd d9 7d 92 3e
       -0.6287504 -3.918745 -0.049216982 0.2861164
000160 0e 2b df be b9 28 c8 3e ed aa 5e bf ff 7f b9 bf
       -0.43587536 0.3909357 -0.8697956 -1.4492186
000170 ee 13 ca bb e4 1d b6 bd 3f 8b 2a bf 24 92 d6 bf
       -0.0061669266 -0.0889242 -0.6661872 -1.6763349
000180 78 81 24 be 3b f9 c4 3e f6 61 f7 3e b4 e1 da 3e
       -0.16065013 0.38471398 0.48316926 0.42750323
000190 5a b4 b8 3e 15 c4 dc be 1b 13 68 bf 76 15 db bf
       0.36075097 -0.4311835 -0.9065415 -1.7115924
0001a0 57 61 c3 3e 15 46 22 bf 39 9d 85 bf 27 0b 1e c0
       0.38160202 -0.63388187 -1.0438606 -2.4694307
0001b0 7a 5d 4b 3f f4 b1 5c 3f 56 5d 98 be 33 82 b2 3e
       0.7943951 0.86209035 -0.2975871 0.3486496
0001c0 99 da 5c bf 45 53 29 c0 97 82 bc be 3b d7 5e be
       -0.86271054 -2.6457074 -0.36818382 -0.21761791
0001d0 fe 18 45 bf 47 85 f0 bf f2 2a 45 3f 8b 75 1c 40
       -0.7699126 -1.8790673 0.77018654 2.4446743
0001e0 9a f4 a0 3e 8f d7 0f 3e b0 de d6 be df 7a b1 be
       0.31436616 0.14047073 -0.41966772 -0.34664056
0001f0 9a cf e1 3e a4 82 bd bd 30 d0 b1 bf e2 98 4d c1
       0.441037 -0.09253433 -1.3891659 -12.849825
000200 aa 0f 53 3e c2 38 ae bc 50 cf 26 bf 9b 3b 1a c0
       0.20611444 -0.021267299 -0.65160084 -2.409888
000210 6b 51 4c be 9e 62 fd c0 12 96 2d 3f 95 74 2d bf
       -0.19952933 -7.918288 0.67807114 -0.67756015
000220 d1 94 0c bf e7 99 27 c0 f7 25 3a bf 0f f7 34 c0
       -0.54914576 -2.6187685 -0.7271418 -2.8275793
000230 cc 9d af bc fc 6e 24 c0 06 37 48 3f 17 f0 9d c0
       -0.021437548 -2.569274 0.7820896 -4.935558
000240 8f 36 23 bf f8 15 28 c0 1b eb 91 bf fd b8 aa bf
       -0.63755125 -2.6263409 -1.1399873 -1.3337704
000250 82 bc 87 bd 23 6d 0b be 69 0b d3 be 47 75 8e c0
       -0.06627752 -0.13615851 -0.41219643 -4.451816
000260 1a 5f 3f bf df 5d b7 c0 4c c7 d1 be 3b 08 09 c0
       -0.7475449 -5.730209 -0.40972364 -2.1411273
000270 e2 4c a3 be 95 30 2b bf 73 85 e8 be d5 44 3e c0
       -0.31894594 -0.66871005 -0.45414314 -2.9729512
000280 50 ee 71 be 2b 1a da 3e e9 c6 8c be b7 ff 92 3e
       -0.23626065 0.4259809 -0.27495506 0.2871072
000290 ff 05 81 be 5c e7 8b 40 df c7 0b bf 05 1c 78 c0
       -0.25199887 4.371992 -0.54601854 -3.8767102
0002a0 ed 06 ac bd d2 ef 50 40 7f 60 fd bd 60 c8 2b 3f
       -0.083997585 3.2646375 -0.12371921 0.67102623
0002b0 29 61 26 be 3a ee 66 c0 b0 87 26 3f a5 68 31 3f
       -0.16248001 -3.6082902 0.6505079 0.693003
0002c0 3c e0 1a bf 83 c2 78 bf 5d 06 9b be 86 f5 14 c0
       -0.60498405 -0.971718 -0.30278292 -2.3274856
0002d0 93 ef 2d bf 63 53 ce bf 60 d7 3e 3e ab c5 1b bf
       -0.67943686 -1.6119198 0.18636847 -0.6084849
0002e0 51 53 be bc c6 aa ba c0 d6 38 13 3f c6 34 1f be
       -0.023233088 -5.8333464 0.575086 -0.15547475
0002f0 76 47 1a 3f be f7 29 3f 42 bc 3b 3d b1 f6 0a 41
       0.6026529 0.6639365 0.045833834 8.685227
000300 0e 0c d0 be 0f cc 92 3f 19 58 1b bf d9 07 44 3f
       -0.40634197 1.1468524 -0.606813 0.76574475
000310 19 8a b7 bd 98 38 02 3e 7e a8 3d bf 79 0f f9 3f
       -0.08961887 0.12716901 -0.74085224 1.9457847
000320 51 e1 00 bf 1a 70 51 c0 48 32 fb be ea 3f 67 40
       -0.50343806 -3.2724671 -0.490618 3.613276
000330 d1 9f aa 3f 37 45 07 c0 3d 04 e4 be 4e 60 b6 be
       1.3330022 -2.1135995 -0.44534484 -0.3562035
000340 c3 8d 8d 3e 71 54 3c be cb e1 09 bf 4e 78 92 bf
       0.27647218 -0.18391587 -0.5386016 -1.1442964
000350 51 a6 6d be 3a a5 73 be 32 1b 1b 3f 2a 8b 18 be
       -0.23207976 -0.23793498 0.6058837 -0.14896837
000360 49 01 13 bf ad 36 6c 3f 41 dd 41 bf e2 02 cf bf
       -0.57423836 0.9227093 -0.7572823 -1.6172755
000370 f2 09 f4 3e 7c cb d6 3e 62 36 de be 85 64 53 c0
       0.47663838 0.4195212 -0.43400866 -3.3030102
000380 a8 b6 88 bf 11 89 b3 bf 9f 08 60 be a0 bf 4f c0
       -1.0680742 -1.4026204 -0.21878289 -3.2460709
000390 44 c2 d5 be 5c d0 83 40 81 c3 75 3f d7 51 11 c0
       -0.41749775 4.1191845 0.9600144 -2.27062
0003a0 1e ca 0e bf ee 82 4e c0 e4 a9 1e be e0 fb 0f 3f
       -0.55777156 -3.2267413 -0.15494496 0.56243706
0003b0 3f 5e 78 be 0c 06 1e bf 94 69 1c 3f cb 06 85 3e
       -0.24254702 -0.61727977 0.610986 0.25981745
0003c0 07 9f 50 bf 7c d9 dc bf c4 07 3c bf 86 0c 23 c0
       -0.81492656 -1.7253871 -0.7344935 -2.5476394
0003d0 bf 0a 04 be ea c0 5e 40 1b d4 45 be a1 b9 33 c0
       -0.12894724 3.4805245 -0.19319193 -2.808205
0003e0 65 15 97 be 41 e5 6f c0 a2 30 65 bf aa 81 60 c0
       -0.2950851 -3.7483675 -0.8952733 -3.507914
0003f0 bd 11 15 bf 81 53 0e 40 b6 10 79 be b8 c8 4e c0
       -0.5823019 2.2238467 -0.24322781 -3.231001

fc1.bias f4 [256]
000000 72 ca 32 3e 8a 20 84 3e c5 76 3a 3f 1a e1 a4 be
       0.1746004 0.25806075 0.7283748 -0.3220299
000010 4b 66 00 be ff 21 8c bc 0b ef a7 3e 6b bf 19 bf
       -0.12539022 -0.017106054 0.32799563 -0.60057706
000020 d2 c0 e5 3d 5e b0 c5 3e af 94 d6 be b7 8e 45 3e
       0.11218418 0.3861112 -0.41910312 0.19292723
000030 e4 90 ab 3c 15 dd 0c 3e 54 2d 2c bf 81 9c 2b 3f
       0.020943113 0.13756211 -0.67256665 0.6703568
000040 fd ae 0f 3e 06 3f ed bd c2 ec 2f 3d 48 98 a0 be
       0.14031596 -0.115842864 0.0429504 -0.3136618
000050 c1 6d 51 be 34 08 37 3f 55 1d 59 3e e2 58 5a be
       -0.20452024 0.7149689 0.21202596 -0.21322969
000060 23 9d 86 be 4f fb d4 3e 8d 29 57 3e 61 3b eb 3d
       -0.2629176 0.41597983 0.21011944 0.11485935
000070 88 98 06 3f 76 c3 15 bc be c8 eb be f2 40 13 bc
       0.52576494 -0.00914084 -0.46051592 -0.008987652
000080 84 1c cd 3d 1f cb e1 3e 47 bb 1f 3e 3a 47 29 bf
       0.100152045 0.44100282 0.15598784 -0.6612431
000090 a2 ae 27 3d a8 a7 9d be 4d 1a a7 3e 69 d4 ef 3d
       0.040938027 -0.30791974 0.32637253 0.11710436
0000a0 30 0e 43 3f 5d ec b9 3e 86 b2 c2 3e e3 7a b2 be
       0.76193523 0.36313143 0.38026828 -0.3485938
0000b0 ce 28 18 bf d6 3e fc 3e d4 f5 6c be 7e 0d cb 3e
       -0.59437263 0.4926669 -0.23140651 0.3965873
0000c0 27 7d 34 bf 97 f8 f9 be dc ae bc be a7 3e c1 3d
       -0.7050347 -0.48822471 -0.36852157 0.09435778
0000d0 29 63 2e bf 60 95 c9 bc 55 5d 22 3f 16 5c 0f bf
       -0.68120056 -0.02460736 0.63423663 -0.55999887
0000e0 93 a6 12 3f 27 d3 0c bf b2 59 e9 3e 6f d0 f1 3e
       0.5728542 -0.5500969 0.45576245 0.47229335
0000f0 ce 52 4d be 84 92 24 bf 6b 30 9b be 05 5c 36 bf
       -0.20051119 -0.64286065 -0.30310377 -0.7123416
000100 b5 61 47 be 00 e8 ab 3e 33 b0 d2 3d 8d a3 cc be
       -0.19470866 0.3357544 0.102875136 -0.3996853
000110 b6 3c a4 3e 39 f4 d7 3e b1 73 87 3d 01 68 0c 3e
       0.3207757 0.42178515 0.06613863 0.1371155
000120 4d 48 bb 3e 67 e7 1e 3f 0d 43 f7 bd 3a 42 ba be
       0.365786 0.6207184 -0.12073336 -0.36378652
000130 5e 77 92 3d 05 f7 69 3e a9 c9 26 bf 5d 59 49 3e
       0.07151674 0.22848137 -0.6515146 0.19662996
000140 c5 f8 ca be 86 11 22 bf da 7b 34 3f bf 9f 08 bd
       -0.3964292 -0.6330799 0.7050148 -0.03335547
000150 03 23 c4 3e 74 b6 a9 be 8d c0 e6 3d 76 33 06 bf
       0.38307962 -0.33147013 0.11267195 -0.52422273
000160 70 d6 21 bc 04 03 08 3e db 28 da 3e 2f d8 62 be
       -0.009877786 0.132824 0.42609295 -0.2215278
000170 64 36 ff 3c 39 6b 15 bf d7 0a f8 be 34 d5 d6 3c
       0.031153865 -0.58366734 -0.4844577 0.02622471
000180 d1 39 1b 3f 38 96 2f be c6 2b 9e be e2 1b d8 3e
       0.60635096 -0.17147148 -0.3089277 0.42208773
000190 cb 3a 8e 3e d5 a3 8f be cb 84 a6 3e 17 6e 2b bf
       0.2777923 -0.2805468 0.32523188 -0.6696486
0001a0 d2 20 28 bf 4a 57 3c bd 04 c8 2a bf d6 7e b5 be
       -0.6567508 -0.045981683 -0.6671145 -0.3544833
0001b0 36 79 f5 bc 14 d5 39 3f cf c7 12 bf 32 e7 35 3e
       -0.029965024 0.72590756 -0.57336134 0.17763975
0001c0 b6 e2 16 3f b8 ee d0 3d 92 da 33 3e 1a 31 cf 3e
       0.58939683 0.10201782 0.17563847 0.4046715
0001d0 b4 46 9c 3e f3 e5 03 bf 3e 5a d7 be 03 24 1a bf
       0.30522692 -0.5152275 -0.42061037 -0.602112
0001e0 38 c3 f4 3e c5 5a f7 3e e9 e8 4e 3e 7e 27 b4 3d
       0.4780519 0.4831144 0.20206036 0.08796595
0001f0 d5 67 01 3e 40 75 f5 3d 29 5c 24 3f 54 63 d8 3d
       0.12637265 0.11985254 0.64203125 0.1056582
000200 61 29 79 3e c4 03 e1 3e e8 13 07 bf ae 70 cb 3d
       0.24332191 0.43948185 -0.5276475 0.09933601
000210 37 a7 00 3f ed d0 59 3d 8d 84 00 bf 21 43 26 3f
       0.5025515 0.053177763 -0.50202256 0.6494618
000220 c6 e5 a6 be c5 8c e5 3e 10 75 09 bf a0 58 d5 3e
       -0.32597178 0.4483396 -0.5369425 0.41669178
000230 f3 4c 9b 3e aa 59 11 3f ae 9c 28 3f f5 df 08 bf
       0.30332145 0.5677744 0.65864074 -0.5346673
000240 7e 89 d4 3e 9c f3 a9 3e 86 dd 14 3d e3 b1 92 be
       0.41511148 0.33193672 0.036344074 -0.28651342
000250 ff 44 0b 3f 83 12 e0 3d 6d 7b c4 bd b6 1a 00 3e
       0.54402155 0.10941031 -0.09593854 0.1251019
000260 ff d3 f5 3e 2e 6a 0f 3e 59 e4 d2 3d d5 9b 5b 3f
       0.48013303 0.14005348 0.1029746 0.85784656
000270 1a 37 26 3e 64 79 29 bf 49 f1 b0 3e 89 7c 25 bf
       0.16231957 -0.6620085 0.34559086 -0.6464315
000280 55 98 be be 68 b3 bb 3e 58 96 c1 3e 5a d6 26 3f
       -0.37225595 0.36660314 0.37810016 0.65170825
000290 1a 61 ef 3d e6 27 04 3f 48 8c 46 3f ad e6 97 be
       0.116884425 0.5162338 0.775578 -0.2966818
0002a0 63 42 c1 3d 51 cd 8f 3e c8 4f a8 be 56 6c 61 be
       0.094364904 0.2808633 -0.32873368 -0.22013983
0002b0 9d 08 34 3e 51 dd 50 be 4c 08 1e bf 5b f0 a1 be
       0.1758141 -0.20396926 -0.6173141 -0.3162869
0002c0 50 20 98 be fd e1 ac 3e b3 f8 a3 3e 80 01 41 be
       -0.29712152 0.33766165 0.3202568 -0.18848228
0002d0 19 ab 09 be a1 ea 1a 3f b2 40 b6 be 94 77 0a 3e
       -0.13444175 0.60514265 -0.35596234 0.13522178
0002e0 a6 59 1f bf bb ac 15 3f 01 68 0b bf 32 dc ea be
       -0.6224617 0.5846669 -0.5445557 -0.4587112
0002f0 b5 64 1a bf 90 15 05 bf 11 99 a6 be 25 60 06 3f
       -0.60309917 -0.51986027 -0.32538655 0.52490455
000300 c9 ff de bd 48 7b 78 be 6d 9f 10 bf a8 fa 2a bf
       -0.10888631 -0.24265778 -0.56493264 -0.6678872
000310 f1 c5 a7 3c 44 14 c7 be 24 8b 7d 3e 20 55 11 bf
       0.020480128 -0.3888265 0.24760109 -0.56770515
000320 03 28 dd 3e 28 7d 2b bf 52 31 be 3d cf 87 0a 3f
       0.4319459 -0.6698785 0.09286751 0.5411348
000330 42 4f b4 be 41 1e 56 bd c4 8e 8d be 63 ad 27 bf
       -0.3521672 -0.052274946 -0.27647984 -0.6549894
000340 eb fe fb be 11 c2 ad be 24 67 db 3d f5 ea 1e 3f
       -0.49217924 -0.33937123 0.10713032 0.62077266
000350 d4 5c a5 bd fe ef ff 3e 2e ff d8 3e 0b 92 87 be
       -0.08074346 0.49987787 0.42382187 -0.2647861
000360 0d d4 9f be 2c 08 f2 bd b7 b7 af 3e 95 64 83 3e
       -0.3121647 -0.11817965 0.3431985 0.25662675
000370 07 03 1d bf 09 dd 29 bf df ac c0 3d 06 53 c0 3e
       -0.61332744 -0.663529 0.094079725 0.37563342
000380 bc a2 38 3f 05 d7 c8 3e 5f 49 12 3f 76 46 2f 3d
       0.7212331 0.39226547 0.57143205 0.042791806
000390 57 3a c3 be 30 8d 1c bf cf 13 af be a8 eb a6 bd
       -0.38130447 -0.61152935 -0.341948 -0.081504166
0003a0 35 4c ca 3d cc 25 ec 3e b4 a9 eb 3d 00 df 19 3e
       0.098778166 0.46122587 0.11506978 0.15026474
0003b0 72 fb 00 3f 55 0a 0b 3f 70 d3 a1 bd 4e d1 27 bf
       0.50383675 0.5431264 -0.07901657 -0.6555375
0003c0 ce 36 09 bf 3b b4 90 be c9 40 07 3f 13 98 d5 3d
       -0.5359925 -0.28262505 0.5283323 0.104293965
0003d0 60 43 0e bf ba b3 13 3f 83 d0 e0 3e a1 0d 1e bf
       -0.55571556 0.57696116 0.43909082 -0.61739546
0003e0 2f e4 de 3d f1 03 60 3e 13 b4 90 be 7c 33 d9 be
       0.10883366 0.21876504 -0.28262386 -0.42422092
0003f0 60 56 39 bd 3c 4e ac 3e c9 0a 14 3e 7d 8f 08 3f
       -0.04524839 0.33653438 0.14457239 0.53343946

fc2.weight f4 [128, 256]
000000 b9 6f 08 3f 42 9c 07 3f 71 be e9 3d 28 e1 2c bc
       0.53295475 0.52972806 0.11413277 -0.010551728
000010 7e ff 58 be a3 2e a4 c0 32 78 b9 bd 30 54 21 3d
       -0.21191213 -5.130693 -0.090561286 0.039386928
000020 34 20 13 3f 88 e8 ad bd 9c 99 a1 3c 4b 11 f9 be
       0.57471013 -0.084916174 0.019726567 -0.48646006
000030 64 0d c2 bd 86 0b 08 3f 20 41 a7 bc 44 65 c3 3d
       -0.0947521 0.53142583 -0.020416796 0.09540799
000040 7c 8e 08 3c 4e 0f d0 bf 9a 5b de 3e dc 31 15 bd
       0.008334752 -1.6254671 0.4342926 -0.036424503
000050 a9 b4 14 c0 70 ec c9 bc 7b 76 7c 3e 5c 03 5a bf
       -2.3235266 -0.024648875 0.24654572 -0.85161376
000060 aa 6c 6b bd 7b 0e 2a 3e 56 9d 94 3e 4f d4 21 3d
       -0.057476677 0.16607086 0.29026288 0.039509114
000070 65 8c 01 3d bd 38 90 bd 5e 00 64 bd 31 dc 93 be
       0.03162803 -0.07042072 -0.055664413 -0.2887893
000080 46 1d 0d 3f b4 62 8e 3f be cc 6e bc b2 57 15 3d
       0.5512279 1.1123872 -0.0145751815 0.036460586
000090 28 65 f2 bf 5c 7a 0d bd 37 60 09 bf d1 fc 55 bd
       -1.893712 -0.03454052 -0.5366244 -0.052243058
0000a0 30 91 08 3e 32 b1 44 3c 0d 01 16 3e 68 d3 1d bc
       0.13336635 0.012005137 0.14648838 -0.009632923
0000b0 74 69 fe 3c 16 3c aa 3d d8 66 67 bd 11 42 51 3d
       0.031056143 0.08312242 -0.056494564 0.051088396
0000c0 30 df 92 3c 90 51 47 3d 90 77 ef bc 03 e6 c1 3d
       0.01792869 0.04866177 -0.029231817 0.094676994
0000d0 fc 6b c8 3c 2a 6c a3 bd 85 00 94 3e 38 cd 8f 3c
       0.024465553 -0.07979615 0.28906646 0.01755391
0000e0 07 c7 0a 3e 40 11 e9 3a 61 97 b7 3d df a5 20 bf
       0.13552485 0.001778163 0.0896442 -0.627531
0000f0 c6 0d 71 bd 9c 75 e4 3c 20 55 6a bd 4c c8 26 bf
       -0.058851026 0.027888112 -0.057210088 -0.6514938
000100 e0 06 0c 3b ed 16 10 3e d2 21 1e 3f f8 83 8a bc
       0.0021366403 0.14071245 0.61770356 -0.01690863
000110 44 e1 31 3e 8f 6c b2 3d 0d 21 2c 3f f7 bd 52 bf
       0.17371088 0.08712112 0.6723793 -0.82321113
000120 59 60 0f 3e ae 08 b8 3d 8c 3f c5 3c b5 db 12 c1
       0.14001597 0.089860305 0.024078153 -9.178639
000130 32 95 60 3d d5 f2 41 3e 5e 18 42 3d 14 9b 52 3e
       0.054829784 0.1894029 0.04738652 0.2056697
000140 32 a2 35 bd 48 b0 2f 3d cb 0b 82 bd aa 32 9a be
       -0.044344135 0.042892724 -0.063499056 -0.3011678
000150 99 f2 19 be 66 62 19 3d fa b0 1b 3f 78 ec 4c 3c
       -0.1503395 0.037447356 0.6081692 0.01250755
000160 b1 35 d6 bd b9 04 46 3e 80 02 8c 3c b8 41 71 3d
       -0.104594596 0.19337739 0.017091036 0.058900565
000170 69 36 04 be f8 09 f0 bc 98 a4 03 bc 9e 89 a6 bf
       -0.12911381 -0.029301628 -0.008034848 -1.3010747
000180 f9 b1 e5 3c 9d e2 08 bf 3e ad 66 3d 33 57 4b bd
       0.028038966 -0.53470784 0.05631756 -0.049643707
000190 70 08 8b 3e 8f ae d2 bf 64 0f ae be 84 e1 8d 3c
       0.27154875 -1.6459521 -0.33996117 0.017319448
0001a0 fe fb 18 bd 79 ef 07 be d8 4e 35 3c 20 9b ef 3b
       -0.037349693 -0.13274945 0.011066161 0.0073121935
0001b0 79 46 82 bf b3 98 cd 3d 3a 27 6c 3d 16 d0 98 3e
       -1.0177757 0.10038891 0.057654597 0.29846257
0001c0 99 33 50 3c 5b a7 e2 3e cc fd a0 bf 43 6f 09 be
       0.012707614 0.44268307 -1.2577453 -0.13421349
0001d0 31 53 2a 3e 38 07 ed 3c 38 f0 0d bc 1c db 6d bd
       0.16633298 0.028934106 -0.00866323 -0.058070287
0001e0 53 5f bd 3d 58 a7 e8 3d 0c da be be 1a 1e b5 3e
       0.09246697 0.11360043 -0.37275732 0.35374528
0001f0 35 d9 d3 3e 21 c2 c0 3d 40 5f 17 3c 73 0a ac 3e
       0.41376653 0.09412027 0.009239018 0.33601722
000200 b4 a0 2a be a0 c8 0d 3e 4e a3 3a bd 16 36 62 3e
       -0.16662866 0.13846064 -0.045565896 0.22090945
000210 34 51 0b 3e 8e a8 3d bf b8 d4 d0 bc 26 5e 49 3d
       0.13605195 -0.7408532 -0.025492057 0.049162053
000220 79 5c 2a bf 3c 3d 9e 3b 80 c1 a9 bb 84 ab 82 bd
       -0.6654735 0.004829077 -0.0051805377 -0.0638037
000230 04 e8 07 bd 52 2f 5e be fc e7 00 3e db 44 96 bf
       -0.03318025 -0.21697739 0.12588495 -1.1739763
000240 a5 b6 8c 3d 2a 95 c8 3d 1a 63 99 3d d4 0f d3 bc
       0.06870774 0.09794076 0.07489605 -0.025764383
000250 bd b7 66 3d f6 84 39 3f c0 87 a4 3b ba b4 f0 3e
       0.05632757 0.7246851 0.0050210655 0.47012883
000260 f1 cb 41 3d 60 8a 83 bb bd 7c 05 3e 53 59 9e bc
       0.047313634 -0.0040142983 0.13035865 -0.019329702
000270 2a 9a 47 3f 76 6e 35 3d 38 65 c6 3b 70 f5 51 3c
       0.7796961 0.044294797 0.0060545467 0.0128148645
000280 f0 a8 dd 3b 91 a4 92 be 08 49 9d bd 04 ee 1a 3c
       0.0067645237 -0.2864118 -0.07679945 0.009456161
000290 35 9a d3 3e 3b 67 2a be 56 b3 08 3e 28 bc 84 bc
       0.41328588 -0.16640942 0.13349661 -0.016203001
0002a0 2c 90 1b 3f 88 be 69 be 13 61 81 c0 bb 2d 9f bf
       0.60766864 -0.22826588 -4.0431 -1.2435831
0002b0 cb 95 07 bf c0 7b b4 bc 78 db 2a bd cc d3 36 3d
       -0.5296294 -0.022031665 -0.041713208 0.04463558
0002c0 60 88 35 3d 50 5c 50 3e bf 9e 72 3d dd 80 0c bf
       0.04431951 0.20347714 0.059233423 -0.5488413
0002d0 6a d4 9a be 65 2c 99 3d 64 ab e0 bc b2 c0 af 3e
       -0.30240184 0.07479171 -0.027425475 0.34326702
0002e0 f4 c1 fe bc d0 62 0c 3e 06 17 20 bd a8 86 17 3d
       -0.031098343 0.13709569 -0.039084457 0.036993653
0002f0 e0 0c 03 3d 80 15 c8 bb 70 55 59 bd bb 9f d6 3d
       0.0319947 -0.0061060786 -0.053059995 0.10479685
000300 e8 b1 46 bf 08 1c e7 bc d0 b1 e7 3b 0a d5 2b 3d
       -0.77615213 -0.028211609 0.0070707574 0.041951217
000310 63 d5 b3 bd d4 d2 6b 3d fd d4 81 3e 02 45 74 3d
       -0.08780935 0.05757411 0.2535781 0.059636123
000320 99 b0 11 be f0 51 3b bc fb d9 99 be be aa fa bd
       -0.14227523 -0.01143311 -0.30049118 -0.12239598
000330 4c 20 87 3c 71 fa ad bf b4 b0 55 bf 38 b6 27 3d
       0.016494893 -1.3592054 -0.8347275 0.04094526
000340 10 ea 72 3d b4 4e 87 bc 58 39 c8 bd bd 81 87 3d
       0.05930525 -0.01651702 -0.097765625 0.066165425
000350 4a 60 61 bf 4c 89 29 3e 78 55 09 3e fb 7c 8a bf
       -0.8803755 0.16556281 0.1341151 -1.0819391
000360 a8 45 00 c0 36 a4 1a be 32 7f 37 b7 96 bb ee bc
       -2.0042515 -0.15101704 -1.0937265e-05 -0.029142182
000370 0d ef 4e bf 7c 23 c6 3c 5c da b1 be 7b 9a db 3d
       -0.8083351 0.024186842 -0.34736907 0.10722824
000380 a9 26 21 3e c7 62 37 be bd ce 0b 3e 17 71 8e 3d
       0.15737404 -0.17908774 0.13653083 0.06955164
000390 20 e7 66 3d 22 93 0f bd 8c 48 52 bd 60 4f 20 3c
       0.05637276 -0.035052426 -0.051338717 0.0097845495
0003a0 29 1c 8f bb a9 11 d2 3d 72 3f 0d c0 a5 15 1d bd
       -0.0043673706 0.10257275 -2.2069974 -0.03835072
0003b0 ac a4 45 be 83 13 21 3e 56 78 e9 be 80 4c e7 ba
       -0.19301099 0.157301 -0.45599622 -0.00176467
0003c0 e2 65 75 bd 64 06 d4 bc 50 33 fc 3d 78 37 9d 3e
       -0.059911616 -0.025881954 0.123144746 0.30706382
0003d0 42 1f 79 bd f7 6a ad 3d d5 31 85 3d 3e e1 31 3d
       -0.060820825 0.084676675 0.06503645 0.0434277
0003e0 78 0e 50 bf 48 4f a4 be a6 c4 48 bd b8 2f ed bc
       -0.8127208 -0.32091737 -0.049015664 -0.028953418
0003f0 53 bd 5f be 65 e5 33 3d 40 84 a2 3e d3 ce 3e 3b
       -0.21849565 0.04391994 0.31741524 0.0029114976

fc2.bias f4 [128]
000000 d6 c2 19 3e 95 13 15 be de eb 62 3d 43 71 09 be
       0.1501573 -0.14558251 0.05540072 -0.13422112
000010 cb 56 d3 3e ae c5 80 bd 9a e5 06 3d d8 26 89 bc
       0.41277155 -0.062877044 0.03293381 -0.016742155
000020 38 2d 07 bc 95 b1 ff bc e0 61 59 bc 9a 40 6a 3d
       -0.008250527 -0.031212607 -0.013267964 0.057190515
000030 4e a4 92 3d d3 e0 13 3d c9 01 b9 bc a0 a2 47 3d
       0.07160245 0.03610308 -0.022583859 0.048739076
000040 1e 33 2c 3b c6 38 3c bc c8 5b 4a bd 35 b0 91 be
       0.0026275585 -0.011488145 -0.049403936 -0.28454748
000050 cd ff 3a be 06 78 2b bd ec 8b 38 be 5b 9a 67 bd
       -0.18261643 -0.04186251 -0.18022126 -0.05654369
000060 02 f6 29 bd 06 87 c1 bd ae 4f 8b bd d1 f6 c0 bd
       -0.041494377 -0.09449582 -0.06802307 -0.094220765
000070 30 4d c1 bc 68 d4 5b 3d d8 eb 2b 3d 44 55 f9 3c
       -0.023596376 0.053669363 0.041972965 0.030436166
000080 28 7e 1b 3c c7 f1 90 3c fa 80 11 3d ce 5a 6a 3e
       0.009490527 0.017693413 0.035523392 0.22886202
000090 98 27 31 bd 28 8c 2f be 31 4c 06 bd e7 fa 76 be
       -0.04325065 -0.17143309 -0.032787506 -0.24119149
0000a0 f4 ee fb 3d 82 9a 2c bd 81 7f 6b ba f0 f0 49 bd
       0.12301436 -0.042139538 -0.0008983538 -0.04930204
0000b0 7b 10 e4 bc 25 6b da 3d 9a 5e 38 3d 90 f1 83 3a
       -0.02783989 0.106649674 0.045012094 0.0010066498
0000c0 d2 0d 54 be 8e ac 57 3d d5 20 63 bb 6e c5 35 bd
       -0.20708397 0.052654795 -0.003465702 -0.044377737
0000d0 a3 db ae 38 31 f0 01 be e6 47 0f be 80 27 e5 3c
       8.337877e-05 -0.12689282 -0.13992271 0.027972937
0000e0 67 74 24 3c a0 88 97 3c b2 8a 1a bd 73 14 33 be
       0.010037518 0.018497765 -0.037729926 -0.1748827
0000f0 b9 bb b7 3c f6 e1 cf 3c 5f 53 35 bb 69 ef 0b be
       0.02242838 0.025376301 -0.0027668101 -0.13665546
000100 4c 82 a6 bc 02 d0 c9 bd cd ec 42 3d 49 c7 aa bd
       -0.020325802 -0.098541275 0.047589112 -0.08338792
000110 c4 40 a8 bd 2b ae f2 bc b6 a1 81 be b4 60 8c bc
       -0.08215478 -0.029624065 -0.25318688 -0.017135955
000120 84 aa 2d be 7f 07 df 3c a9 ac 51 be 37 78 15 bc
       -0.16959578 0.027225254 -0.20476021 -0.0091229
000130 83 ed 08 be 2b 24 6b bc 74 f0 8c 3d 00 79 57 3d
       -0.13371854 -0.014351885 0.068818 0.05260563
000140 24 bc 48 bd a0 93 8a 3d 34 79 3d 3d 0c 4f 72 3d
       -0.04900755 0.067664385 0.046258166 0.059157416
000150 2a 67 b3 bc 2b 10 3b 3e 5c d1 07 be 12 9f a1 bd
       -0.021899778 0.18267886 -0.13263458 -0.078916684
000160 9b 2e ef 3c 62 ca c3 3e 52 5a 80 3c e9 54 a6 3d
       0.029197028 0.38240343 0.015668068 0.08121664
000170 a3 5e c8 3e 34 2d 04 be 8f ac b7 bd 5a 3a fd bd
       0.39134702 -0.12907869 -0.0896846 -0.12364645
000180 a1 46 bd 3c 84 40 58 bd c0 c2 0a bb b0 2c cc 3e
       0.023104968 -0.052795902 -0.002117321 0.39877844
000190 a0 1f e3 3b 9c e7 b0 3c b1 3a 1a bd e5 14 df 3b
       0.00693126 0.021594815 -0.03765363 0.0068079107
0001a0 78 af 97 be eb 31 e9 3c a4 82 38 be 42 13 02 3d
       -0.2962606 0.028466186 -0.18018585 0.031756647
0001b0 c9 d1 8a bc b7 ad 81 3d 09 64 5e bd 0f c2 3d 3d
       -0.016945736 0.063319616 -0.05429462 0.046327647
0001c0 70 c5 a8 3d 3d ad 07 3e 69 6b 43 bd 29 6c 42 bc
       0.08240783 0.13249679 -0.047709856 -0.011866608
0001d0 7c 05 d6 3c dc 9a 13 3e 81 3b 21 be 7a ad 19 3c
       0.026125662 0.14414543 -0.15745355 0.009379739
0001e0 d8 2a d9 3d e2 f7 0c bc 2b df 0e bc c6 ac a9 bc
       0.10603875 -0.008604022 -0.0087202 -0.020712268
0001f0 6f 38 45 3d 2b 98 79 3c 0b df e2 3d 66 c6 3d be
       0.048149522 0.015234034 0.11077698 -0.18532714

fc3.weight f4 [3, 128]
000000 78 6f 4b 3f 7f 83 47 c0 6f 82 95 bd e2 89 04 40
       0.7946696 -3.117401 -0.07300269 2.0709157
000010 e8 95 bb be 41 79 07 3d 0d 5f b6 3b 4f 25 89 bd
       -0.36637807 0.03307462 0.00556553 -0.06696569
000020 e9 ca 52 3d 22 3a af 3c 74 b4 68 bd 0f 51 80 bd
       0.05146304 0.021390025 -0.05681272 -0.06265461
000030 12 fc 1a bf 91 f8 90 bc f1 c2 ce be 18 3a ce bc
       -0.6054088 -0.01769665 -0.40383103 -0.025174186
000040 79 cb ac bc 2d bc 59 bf f3 8d 38 bf 74 b0 3f c0
       -0.021093117 -0.8505276 -0.720916 -2.9951448
000050 b3 21 35 c0 08 9b e8 bf f0 57 57 bf ac 57 5a bf
       -2.8301818 -1.8172312 -0.84118557 -0.85290027
000060 72 d0 82 3c f5 a1 f4 bd 9b aa 0a bf 73 d5 b0 be
       0.015968535 -0.11944953 -0.54166573 -0.3453785
000070 c0 d8 74 3d 78 36 4e bd 71 54 92 bd 0f d1 b1 3b
       0.05977702 -0.050344914 -0.07145012 0.005426533
000080 32 09 04 3d c3 3a a2 bd a8 ab 12 bf 3f b1 71 3f
       0.03223533 -0.07921364 -0.57293177 0.9441108
000090 52 95 8d bc 9a db 98 c0 d1 5c 4f 3d 56 cd c2 3f
       -0.017283116 -4.776807 0.050625626 1.5218914
0000a0 74 a4 5c 3f 43 f0 a0 bd 7b a1 94 3f 98 93 d1 3c
       0.86188436 -0.07858326 1.161178 0.025583073
0000b0 38 db 87 3d 87 d7 32 bf 6e 71 d6 3c df 03 bd 3c
       0.066336095 -0.6986012 0.026177134 0.023073135
0000c0 e8 69 0b c0 96 da 97 bd 2d 46 40 bc 09 5c 7a 3d
       -2.178339 -0.07414739 -0.011735481 0.061122928
0000d0 33 89 b3 bd 3d b3 ff be 6c cd 92 bf 83 85 13 bf
       -0.08766403 -0.49941435 -1.146894 -0.576256
0000e0 8f e1 05 bf 00 0b 23 3f 4c 6c c7 bf 95 9a a8 be
       -0.522973 0.6368866 -1.5579925 -0.32930437
0000f0 ba 0b ac bd a9 be 0c 40 73 95 a6 bd 3e cb bf be
       -0.08400674 2.199137 -0.08133974 -0.3745975
000100 d3 43 03 3d 9a ce 0f bf 83 cb 84 3d 91 1e aa be
       0.032047104 -0.56174624 0.06484129 -0.33226445
000110 27 30 39 bf 32 33 a9 3d f6 d9 7c 3f 8c 06 01 3d
       -0.723391 0.08261718 0.9877008 0.031500384
000120 72 71 53 bb 18 b8 56 ba 45 8f 21 bf 62 51 33 bd
       -0.0032263664 -0.0008190884 -0.63109237 -0.043778785
000130 4c ba 00 c0 89 67 0e bf 2f 3e 2c 40 a7 93 6e bf
       -2.0113707 -0.5562673 2.6912954 -0.9319405
000140 c5 49 9b bd 0b 13 0e c0 32 bd 86 bb fb fc 22 40
       -0.0758243 -2.2199123 -0.0041119093 2.5466907
000150 50 f0 05 3c ed 25 1a 40 b9 f3 93 bf 07 c2 f7 be
       0.008174971 2.4085648 -1.1558753 -0.4839022
000160 d0 4c 1b bf 4b cf 51 3e 33 70 0f bf 1a fc 1b 40
       -0.6066408 0.20489232 -0.5603058 2.437262
000170 13 71 98 3f a1 58 b0 be 32 c7 c1 be 5a 93 96 be
       1.1909508 -0.34442618 -0.37847286 -0.29409295
000180 4a 5a 37 3d ba 56 98 bc 27 04 6c bc 09 6e 3a 40
       0.04476384 -0.018596042 -0.014405287 2.912966
000190 ea 6f 99 3c ce ad 19 bf 6a 55 f1 be 89 57 ee ba
       0.018730123 -0.6003083 -0.47135478 -0.0018184046
0001a0 be c1 92 c0 5f 9e 02 3c ce a6 be be fb c4 05 bd
       -4.58615 0.007972329 -0.37236637 -0.03265856
0001b0 b2 3c 96 3d 21 b1 f6 be c4 a5 60 bd 12 f7 4f bf
       0.073357955 -0.48182014 -0.054845586 -0.81236374
0001c0 80 e4 ca 3f a9 0b 29 bf fb 95 90 3d 02 f3 a4 bd
       1.5850983 -0.66033417 0.070598565 -0.080541626
0001d0 fc 92 25 bc f8 3b ef 3f 2c 29 13 3f be c2 85 3f
       -0.010105845 1.8690176 0.574847 1.0450056
0001e0 19 e8 38 3f 5a 87 b7 be 46 9a 62 3d 30 72 ad 3d
       0.7222915 -0.35845453 0.055322908 0.08469045
0001f0 e7 cb cc 3c 72 15 0a bf 1a 00 e0 3f 50 db bc 3f
       0.024999572 -0.5393897 1.7500031 1.4754429
000200 38 55 56 40 aa f4 b8 c0 81 91 36 3c 17 3d 46 bf
       3.3489513 -5.779866 0.011143089 -0.77436966
000210 c5 ca c2 bd 79 45 13 bd 13 fd f2 3c 5a 67 54 3d
       -0.095113315 -0.035954926 0.02966169 0.051856376
000220 14 8a 6d 3c 80 e1 9d bd cb 34 41 bd b5 68 1e 3d
       0.014498252 -0.07709026 -0.047169488 0.038674075
000230 23 01 11 bf 9b 2b 89 3c 66 77 fd be 7b 75 41 bd
       -0.5664236 0.016744426 -0.49505156 -0.04723118
000240 41 ec 3f 3d 86 0f 27 bf 5f 80 f9 bd ab f8 8e bf
       0.04685617 -0.6525806 -0.12182688 -1.1169637
000250 fb c1 08 c0 7e 1a 33 bf a1 aa 43 bf 90 49 de be
       -2.1368396 -0.699623 -0.76432234 -0.434155
000260 e4 aa 92 3d d1 0e a2 3e 02 73 b3 be 07 99 aa be
       0.07161501 0.3165193 -0.35048681 -0.33319876
000270 88 0a 65 bd de 10 8e bc b1 83 9e 3b 73 fa 78 bd
       -0.055918247 -0.017342027 0.004837476 -0.060785722
000280 5b 34 2f bc 98 19 b8 3c 28 52 e1 be 33 55 d4 3f
       -0.010693635 0.022473142 -0.44007993 1.6588501
000290 4c 9f 39 3d 20 5b a4 c0 31 16 68 bd 8b 85 8f 3b
       0.045317933 -5.1361237 -0.05666179 0.0043799332
0002a0 25 0d 46 be ac c0 83 3c 1f 9b 8e bc b5 07 92 bd
       -0.19340952 0.016083084 -0.017407952 -0.07130376
0002b0 1a 63 3f bb 4f 1e 08 bf 9e fc 96 bc 27 91 88 3d
       -0.0029203356 -0.5317125 -0.018431004 0.066683106
0002c0 08 5e f8 bf df c6 9b 3d c6 a7 2e 3a fe d3 0b 3d
       -1.9403696 0.07606291 0.00066625734 0.03413772
0002d0 b7 fd ad 3a 50 66 ad be 8f 85 67 c0 a2 f4 11 bf
       0.0013274465 -0.3386712 -3.6175268 -0.57013905
0002e0 6d 24 fc be e7 56 87 3f c8 bc 92 bf b1 05 dc be
       -0.4924654 1.0573395 -1.1463861 -0.42973092
0002f0 5c 85 d4 bc db c8 1f 40 91 bd 6a bd 8c c6 b0 be
       -0.025942497 2.4966342 -0.05730969 -0.3452648
000300 1b 59 43 3d dd cd c5 be bc 48 74 3c 7e 6a 8f bf
       0.0476924 -0.38633624 0.014909919 -1.1204374
000310 b2 1d b2 be b5 31 db 3c 49 ea 99 3f 2b 9f 9b 3c
       -0.3478828 0.0267571 1.2024623 0.018996796
000320 2b a5 f9 be 54 5b 20 3c 55 7d c0 bf b9 76 96 bd
       -0.48758826 0.009787399 -1.5038248 -0.07346863
000330 c2 81 3c bf 23 81 0b bf 1b 03 2e 40 c9 e7 76 bf
       -0.73635495 -0.5449392 2.7189395 -0.96447426
000340 a7 d3 6a 3c 06 35 f2 bf 29 14 5b 3d e8 9f a3 3f
       0.014332688 -1.8922431 0.053486023 1.2783175
000350 70 32 b3 3c 71 b4 55 3e 67 b3 07 c0 62 04 d9 be
       0.021874636 0.20869614 -2.1203249 -0.42386156
000360 25 e2 c1 be 32 13 6f be 06 d2 02 bf 4a f4 6e 40
       -0.37867847 -0.23347166 -0.5110172 3.7336602
000370 d6 05 97 3f 04 ac 4b 3f 1c b3 12 c0 b5 59 21 be
       1.1798656 0.7955935 -2.292182 -0.15756877
000380 fb f0 8d bc a1 1d 7b 3d 83 0d b3 3d bc 37 cd bf
       -0.017326823 0.061307553 0.087428115 -1.6032634
000390 e2 1f 10 bd b8 2a 14 bf d2 39 b9 be 51 a5 4f 3d
       -0.035186656 -0.57877684 -0.36176926 0.050694767
0003a0 95 f6 a4 c0 c4 aa 35 bd 7e 65 e1 3e 4e a7 2b 3d
       -5.1551003 -0.044352308 0.44022745 0.0419076
0003b0 66 8f 8f 3c 73 dc 11 bf e5 c6 35 bd 54 b8 6b 3c
       0.017524432 -0.56977004 -0.044379134 0.014387209
0003c0 23 2f ef 3e 40 53 06 bf a8 c8 45 3d e7 0b 9c bd
       0.4671565 -0.5247078 0.048287064 -0.07619458
0003d0 71 29 d9 3a 19 49 d4 3f 9f 94 1a 3f 3c 6d c6 be
       0.0016568137 1.6584808 0.6038303 -0.38755214
0003e0 65 78 5a 3f 91 18 5b bf 7b 71 2f bd 52 b8 d3 bb
       0.8533996 -0.8558436 -0.042832833 -0.0064611817
0003f0 0a e8 88 3c fc 59 ed be 7d d0 be 3f 93 62 91 bf
       0.016712207 -0.46357715 1.4907376 -1.1358207

fc3.bias f4 [3]
000000 2a 49 3e be 98 2d 82 be 1a b0 9e 3e
       -0.18582597 -0.2542541 0.3099373
