ddpg/model/actor.pth (torch, 138420 bytes, 5 tensors)

fc1.weight f4 [256, 3]
0	0x3ebefa48	0.37300324
1	0x3f3d3f8d	0.73925096
2	0x3e1f393e	0.1554918
3	0x3eec7d76	0.4618947
4	0xbea09b58	-0.31368518
5	0x3db60901	0.08888436
6	0xbac4ca6f	-0.0015013943
7	0x3e68b208	0.22724164
8	0xbf22c1dc	-0.63577056
9	0xbd21658c	-0.039403483
10	0xbf25923a	-0.6467625
11	0xbe3cd6e3	-0.18441348
12	0x3f56ebeb	0.8395373
13	0x3f8271dc	1.0190997
14	0x3e992d62	0.29917437
15	0x3ed11595	0.40836778
16	0x3efadce2	0.48996645
17	0x3e1158e5	0.14194067
18	0xbd811f5b	-0.06304809
19	0x3da0fcee	0.078607425
20	0x3e2aa612	0.16664913
21	0xbd897a4c	-0.067127794
22	0x3e292c46	0.16520795
23	0xbd9aef3b	-0.07565161
24	0xbf04e420	-0.5191059
25	0xbf2cc62a	-0.67489874
26	0xbf1be74d	-0.6089981
27	0x3e8ef115	0.27918306
28	0xbf811042	-1.0083086
29	0xbf0f2852	-0.559209
30	0xbf27b95b	-0.65517205
31	0x3e9f1301	0.31069186
32	0x3e87adf5	0.26499906
33	0xbf553916	-0.8329023
34	0xbe96383b	-0.29339775
35	0x3d91b73b	0.071150266
36	0x3f695136	0.91139543
37	0x3f38a0d4	0.72120404
38	0x3ea5527c	0.32289493
39	0xbeee8db1	-0.46592477
40	0x3f20371a	0.6258408
41	0xbdb7e4d6	-0.08979194
42	0xbe22433d	-0.15845962
43	0x3e595a90	0.21225953
44	0xbb5b09e7	-0.003342265
45	0x3e79354a	0.24336734
46	0xbf77de92	-0.9682399
47	0xbd5b50ba	-0.053543784
48	0xbe2ed95e	-0.17075107
49	0x3ef2bacf	0.4740815
50	0x3dd1c615	0.10242859
51	0x3f69a1fe	0.91262805
52	0x3ef7e545	0.48417106
53	0x3e844bdf	0.25839135
54	0x3ec940ad	0.39307156
55	0x3f6938e5	0.9110244
56	0x3e4b12a1	0.19831325
57	0x3cdf7754	0.02727858
58	0x3c8cd788	0.017192617
59	0x3d65b356	0.05607923
60	0xbc826e71	-0.015921803
61	0x3f6eda44	0.93301797
62	0x3e1a99f3	0.1509779
63	0x3f0a66f4	0.54063344
64	0x3f1bef9e	0.609125
65	0x3e679ba9	0.22617973
66	0x3f219841	0.63122946
67	0x3f692a4c	0.91080165
68	0x3e8f8fcf	0.28039405
69	0xbf731609	-0.949555
70	0xbda1b7e0	-0.078963995
71	0xbdf21d55	-0.11822001
72	0x3f0c4bcb	0.5480315
73	0xbdffd562	-0.124918714
74	0xbd6ef86c	-0.058342382
75	0xbee9383c	-0.45550716
76	0x3f4a8d41	0.79121786
77	0xbda887d3	-0.082290314
78	0xbe836ada	-0.2566746
79	0xbe3ee178	-0.18640697
80	0xbe66adfa	-0.22527304
81	0xbe194c5d	-0.14970537
82	0x3f62c5d5	0.8858312
83	0xbe15491a	-0.14578667
84	0x3e72e22d	0.23719092
85	0x3e7b0b8b	0.24516122
86	0xbc40e4d4	-0.011773307
87	0x3f237d63	0.638632
88	0xbe044dc4	-0.1292029
89	0xbe131468	-0.14363253
90	0x3e987bee	0.2978205
91	0x3f956be4	1.1673551
92	0x3e263b9f	0.16233681
93	0xbeb03885	-0.3441812
94	0x3e5eb037	0.21746908
95	0x3e59ce8c	0.21270198
96	0xbee430aa	-0.44568378
97	0x3f94dce4	1.162991
98	0x3e4c2339	0.19935311
99	0x3eb4498d	0.35212365
100	0xbe78e6ef	-0.24306844
101	0xbebcec24	-0.3689891
102	0x3f0a5367	0.5403351
103	0xbe17ef15	-0.14837296
104	0xba0ff766	-0.00054918823
105	0x3e078f44	0.13238245
106	0x3f2c0623	0.67196864
107	0x3df32de5	0.11873988
108	0x3e9723a9	0.29519394
109	0x3fb556f9	1.4167167
110	0x3e3a20b5	0.18176539
111	0xbf2158ae	-0.6302594
112	0xbf3bee96	-0.7341093
113	0x3c8289aa	0.015934784
114	0x3e8e201c	0.27758873
115	0x3f601ed1	0.8754702
116	0x3ea794cf	0.3273072
117	0xbf315ad5	-0.69279224
118	0xbf0325d7	-0.51229614
119	0xbe45b18f	-0.19306014
120	0x3e75f2c7	0.24018393
121	0x3f898ac9	1.0745479
122	0x3b923420	0.00446178
123	0xbf036894	-0.5133145
124	0xbed5f7a2	-0.4179049
125	0xbe689818	-0.22714269
126	0xbecfd679	-0.40593317
127	0xbf571f6f	-0.8403234
128	0xbe8a08ab	-0.26959738
129	0xbe2dbf1d	-0.16967435
130	0x3dc40f83	0.09573271
131	0xbe3e8238	-0.18604362
132	0xbe296095	-0.1654075
133	0xbf9f3458	-1.2437849
134	0xbe34c842	-0.17654517
135	0xbf1a3e01	-0.6025086
136	0xbeb11ea1	-0.3459368
137	0xbe8aed1a	-0.2713402
138	0x3e8dcc50	0.2769494
139	0xbf019299	-0.50614315
140	0xbcc6e025	-0.024276802
141	0xbe6e7596	-0.23287043
142	0xbf5956c4	-0.8489802
143	0xbe2f7ab9	-0.17136659
144	0xbf7d4cf9	-0.98945576
145	0x3e3bb0e4	0.18329197
146	0x3e4cf728	0.20016158
147	0xbf074a2b	-0.52847546
148	0x3e49f172	0.1972101
149	0x3e4cb279	0.19989957
150	0x3e22480e	0.15847799
151	0x3f0a447c	0.5401075
152	0x3d4930b3	0.04911871
153	0xbe183e79	-0.14867581
154	0x3f9809f5	1.1878039
155	0x3e1303ca	0.14356914
156	0x3d92316c	0.07138333
157	0xbd277c46	-0.04089
158	0xbea5ee68	-0.32408452
159	0x3ea6a061	0.32544234
160	0x3f9f567c	1.2448268
161	0x3e91437f	0.28371808
162	0x3eb3e4cd	0.351355
163	0x3efc35a8	0.49259686
164	0x3cc631d4	0.024193682
165	0x3dd27b32	0.10277404
166	0x3fbebd07	1.4901437
167	0x3c2f21fe	0.010689257
168	0xbf399749	-0.7249647
169	0xbe353ad4	-0.17698222
170	0xbe4c70a2	-0.19964841
171	0x3f2f8e09	0.68576103
172	0x3f1aa728	0.6041131
173	0x3e6bc3fd	0.23023982
174	0x3f05074c	0.5196426
175	0x3f225f3f	0.63426584
176	0x3e36f0ed	0.17865343
177	0xbe1875f3	-0.14888744
178	0x3d7c60da	0.061615802
179	0x3d662afa	0.05619333
180	0xbf246c04	-0.6422732
181	0xbe580a31	-0.21097638
182	0x3dc32495	0.09528462
183	0xbf262956	-0.64906824
184	0xbe625e14	-0.221062
185	0xbe6e5351	-0.2327397
186	0x3e92ac84	0.28647244
187	0x3f728b8f	0.947442
188	0xbe444b7a	-0.19169417
189	0x3ebd5856	0.36981457
190	0x3ee62d9e	0.44956678
191	0x3d8d2678	0.06892103
192	0xbf09043c	-0.53522086
193	0xbeb6d06b	-0.35705885
194	0x3d93077a	0.071791604
195	0x3f0437b8	0.5164752
196	0x3f5b2313	0.85600394
197	0x3cbbb200	0.022912025
198	0x3f883337	1.064063
199	0x3d818f55	0.063261665
200	0x3ecb5d9a	0.3971985
201	0x3e244c97	0.16044842
202	0xbf121491	-0.5706263
203	0xbdd97731	-0.10618437
204	0x3f10ea2d	0.56607324
205	0xbe9181c6	-0.28419322
206	0x3eb6a637	0.35673687
207	0xbe533701	-0.20626451
208	0x3f469589	0.7757192
209	0x3e1e76ec	0.15475053
210	0x3c06a725	0.008218561
211	0x3f9a81bf	1.2070845
212	0xbdc45f4b	-0.09588488
213	0x3e9bcd62	0.30430132
214	0x3f6afdcc	0.91793513
215	0xbd882a9e	-0.066487536
216	0x3df65928	0.12028724
217	0x3ec69565	0.38785854
218	0x3e2f6c72	0.17131212
219	0x3e4ea60c	0.2018053
220	0x3e422c6d	0.1896226
221	0xbcb1aa6a	-0.021687705
222	0xbf4ca3ca	-0.7993742
223	0xbf66d329	-0.90165955
224	0xbdc68b7e	-0.09694575
225	0x3f101727	0.5628533
226	0x3e2f3221	0.17108966
227	0xbe4731e1	-0.19452621
228	0xbf47baab	-0.7801921
229	0xbccfcd40	-0.025366426
230	0x3dd90425	0.10596494
231	0xbd7ca9c8	-0.061685354
232	0x3f14249b	0.57868356
233	0xbe92262f	-0.28544757
234	0xbf14d364	-0.58135056
235	0xbe1fe4f8	-0.15614688
236	0xbd37a03a	-0.04483054
237	0x3e336724	0.17519814
238	0x3d1cf813	0.03832252
239	0x3dc8c849	0.09803826
240	0x3ec2fc1f	0.38082978
241	0x3f0350cd	0.5129517
242	0x3e23f506	0.16011438
243	0xbdba30da	-0.09091349
244	0xbe1036f6	-0.14083466
245	0x3a13b6c2	0.0005634838
246	0xbd45da76	-0.048304044
247	0x3f578d86	0.8420032
248	0x3dede859	0.116165824
249	0x3f017279	0.50565296
250	0x3f0e45c8	0.5557523
251	0x3e3ed913	0.18637495
252	0xb9cc8057	-0.00039005533
253	0xbf2c7518	-0.6736617
254	0x3dbeda57	0.09318989
255	0x3de91f41	0.11382914

fc1.bias f4 [256]
0	0x3e95ba1a	0.29243547
1	0xbe5c8fe4	-0.21539265
2	0xbd44cb7a	-0.048045613
3	0x3c4185b6	0.011811664
4	0xbebffffb	-0.37499985
5	0xbe35de83	-0.17760663
6	0x3d9c07dd	0.07618687
7	0x3ece1908	0.40253472
8	0xbef6be19	-0.48191908
9	0xbee29c92	-0.4426008
10	0xbebf13d3	-0.37319812
11	0xbe525499	-0.20540084
12	0xbf0aa021	-0.5415059
13	0xbf218d00	-0.63105774
14	0xbe9e40bb	-0.3090876
15	0xbe8054fa	-0.25064832
16	0x3e6ac135	0.22925265
17	0xbe99228b	-0.29909167
18	0x3ca2388d	0.019802356
19	0xbede1660	-0.43376446
20	0x3e470140	0.1943407
21	0xbe71e76d	-0.23623438
22	0xbe9429d3	-0.2893816
23	0xbee9d841	-0.456728
24	0xbedc7bff	-0.43063352
25	0xbe056c54	-0.13029605
26	0x3f0be28c	0.5464256
27	0xbd7dd0b9	-0.06196663
28	0x3d8e55c2	0.06949951
29	0xbee0b56a	-0.43888408
30	0xbf3a06f7	-0.7266688
31	0x3ecaa4e7	0.39578936
32	0x3ef60dc4	0.48057377
33	0xbf7cca2f	-0.9874601
34	0xbde3d791	-0.111251004
35	0xbe255792	-0.16146687
36	0x3d7d944f	0.061909016
37	0xbf114f93	-0.56762046
38	0xbda0eb00	-0.07857323
39	0xbebfd99c	-0.3747071
40	0xbe158756	-0.14602408
41	0xbf0b209f	-0.5434665
42	0x3dba3a54	0.090931565
43	0xbebfc168	-0.37452245
44	0xbdc027ce	-0.09382592
45	0xbeaae279	-0.3337591
46	0xbf239f25	-0.6391471
47	0x3ddc401d	0.10754416
48	0xbec66133	-0.38746032
49	0x3f1ad7e4	0.6048567
50	0x3dcfd865	0.10148696
51	0xbe6dbe14	-0.2321704
52	0xbf90abdf	-1.1302451
53	0xbd1b26f2	-0.037878938
54	0x3e36e8ab	0.17862193
55	0x3e63afcd	0.22235031
56	0xbeec7fb1	-0.4619117
57	0xbedc2bee	-0.43002266
58	0xbe4fa748	-0.20278656
59	0xbf313358	-0.6921897
60	0x3f23f52b	0.6404597
61	0xbf10ebab	-0.566096
62	0xbde415ed	-0.111369945
63	0xbe079e6c	-0.13244027
64	0xbf6951fb	-0.9114072
65	0xbe2c91e4	-0.16852528
66	0xbf72d779	-0.94860035
67	0x3e19bba4	0.15012985
68	0xbecdcda8	-0.40195966
69	0x3ea4425f	0.32081887
70	0xbdc680e0	-0.0969255
71	0xbea5ebbb	-0.3240641
72	0x3dd63de9	0.10461027
73	0x3d6dcadf	0.0580548
74	0xbdfd60f7	-0.1237201
75	0xbf575bc4	-0.841244
76	0xbe5c31b8	-0.21503341
77	0xbdbbc8cd	-0.09169159
78	0xbe31d39e	-0.17365882
79	0xbf3aa647	-0.7290997
80	0xbe420df8	-0.18950641
81	0xbe509b3e	-0.2037172
82	0xbdb6a404	-0.08918002
83	0xbe97c4ac	-0.29642236
84	0xbea43341	-0.32070354
85	0xbdf61ba5	-0.120169915
86	0xbe5d9e7e	-0.21642491
87	0xbeda5afd	-0.42647544
88	0xbeaa9b5f	-0.33321664
89	0xbc76b92a	-0.015058795
90	0xbf3595c5	-0.70931655
91	0xbe82736a	-0.2547868
92	0xbef3689c	-0.47540748
93	0xbeaa2842	-0.3323384
94	0x3d5b965c	0.05361019
95	0xbf029f0f	-0.51023954
96	0xbf0c88cd	-0.5489624
97	0xbd9bccb2	-0.07607402
98	0xbf1f13f9	-0.6213985
99	0xbed8faa8	-0.42378736
100	0xbf0c08f7	-0.5470118
101	0xbee4c893	-0.44684276
102	0xbdea9a31	-0.11455191
103	0xbf02c489	-0.5108114
104	0xbe61b2d3	-0.22040872
105	0xbeabd08f	-0.33557555
106	0xbc399bad	-0.01132862
107	0xbb6b8921	-0.003593989
108	0xbe8ecccc	-0.27890623
109	0xbf1f07db	-0.6212136
110	0xbf034aa5	-0.51285774
111	0xbe8cf9b4	-0.27534258
112	0xbe5e7988	-0.21726048
113	0x3d74f5c2	0.059804685
114	0xbf45c106	-0.77247655
115	0x3b89e75d	0.004208489
116	0xbebe392d	-0.37152997
117	0x3d0301b7	0.031984057
118	0xbe6299b8	-0.22128952
119	0xbed72f67	-0.42028353
120	0xbea56244	-0.32301533
121	0xbf40ac1a	-0.75262606
122	0xbf3ae7dd	-0.73010045
123	0x3dc0609a	0.09393425
124	0xbd041d4a	-0.032254495
125	0xbf29c8e6	-0.6632217
126	0xbde44fbf	-0.11148023
127	0xbe93c25d	-0.28859225
128	0xbf0aab67	-0.5416779
129	0xbe394dd0	-0.1809609
130	0x3e630bb3	0.22172432
131	0x3ebac9bc	0.36482036
132	0xbe445c6e	-0.19175884
133	0x3e7ba448	0.24574387
134	0xbf3c9842	-0.73669827
135	0xbe89fd16	-0.26950902
136	0xbf23f499	-0.640451
137	0xbeb429ed	-0.35188237
138	0xbdb2222f	-0.08697926
139	0xbe6f9d89	-0.23399939
140	0xbf129494	-0.5725796
141	0x3dc02c3d	0.09383438
142	0xbe9b0a37	-0.3028123
143	0xbec258f2	-0.37958485
144	0x3e45be94	0.19310981
145	0x3f11debd	0.56980497
146	0x3cf49190	0.029854566
147	0xbe3763b6	-0.1790913
148	0xbece6a0f	-0.4031529
149	0xbeb6f5fa	-0.3573454
150	0xbe00081a	-0.1250309
151	0x3e166756	0.14687857
152	0xbf13392d	-0.5750912
153	0xbf0bda54	-0.5463002
154	0xbe63b85c	-0.22238296
155	0xbe3268a4	-0.1742273
156	0xbe9f1f47	-0.3107855
157	0xbeeedb75	-0.46651807
158	0xbd7b491c	-0.06134902
159	0xbf287450	-0.6580248
160	0x3e8494e7	0.25894853
161	0xbec8ab16	-0.39193028
162	0x3e1a57bb	0.15072529
163	0xbf29614f	-0.66164106
164	0xbec0e894	-0.37677443
165	0xbf539724	-0.826525
166	0x3ee2b7ad	0.44280759
167	0xbebd4597	-0.36967155
168	0xbe8694f6	-0.26285523
169	0x3e6042b2	0.21900442
170	0x3cc681ab	0.024231752
171	0xbec24dc2	-0.3794995
172	0xbef00217	-0.46876594
173	0xbe32cb45	-0.17460354
174	0x3da3083d	0.07960556
175	0xbeb2b483	-0.34903345
176	0xbef1dbd3	-0.47238025
177	0x3cc2f173	0.023796773
178	0xbf62ae4f	-0.88547224
179	0xbe9a8ee4	-0.30187142
180	0xbe3c5dc1	-0.1839514
181	0x3e803566	0.2504074
182	0xbec9bb7c	-0.39400852
183	0xbf703b0b	-0.9384009
184	0xbd730914	-0.05933483
185	0x3e51c173	0.20483951
186	0xbf153c7a	-0.58295405
187	0xbe7d9fc0	-0.24767971
188	0xbeaee5be	-0.34159654
189	0xbef309de	-0.47468466
190	0xbef2bb63	-0.4740859
191	0x3e3f6edc	0.18694633
192	0xbea8c2e2	-0.32961184
193	0xbce30e27	-0.02771671
194	0x3d670c78	0.056408376
195	0xbf14d31f	-0.58134645
196	0xbf1ae5d0	-0.60506916
197	0xbe29dfd6	-0.16589293
198	0x3d840c20	0.06447625
199	0x3df18a0a	0.11793907
200	0x3dea390c	0.11436662
201	0xbe473048	-0.19452012
202	0xbead1a44	-0.33809102
203	0x3d81b7f2	0.06333913
204	0xbe97f32b	-0.2967771
205	0x3de22eaf	0.110440604
206	0xbe4b92cd	-0.19880219
207	0x3e3e9fed	0.18615694
208	0xbefcbbea	-0.49362117
209	0x3d551513	0.05202205
210	0xbf229a10	-0.6351633
211	0xbdf29398	-0.118445575
212	0x3e91541f	0.28384492
213	0x3ea02278	0.31276298
214	0xbf2ecfe6	-0.6828598
215	0xbe53f102	-0.20697406
216	0xbe04b947	-0.12961303
217	0xbe7ba160	-0.24573278
218	0x3d269c85	0.040676612
219	0x3ebdd674	0.37077677
220	0xbdb01999	-0.08598632
221	0xbee92a57	-0.45540115
222	0x3d86c997	0.06581419
223	0xbe1124b5	-0.14174159
224	0x3e8c8969	0.27448586
225	0xbf0f93ab	-0.560847
226	0xbf2001c0	-0.6250267
227	0xbe1ce8f7	-0.15323244
228	0xbf10bb2c	-0.565356
229	0xbde910c8	-0.11380154
230	0xbe776d1f	-0.2416272
231	0xbed40d4d	-0.41416398
232	0xbcc0a263	-0.023514932
233	0xbe0f2c9e	-0.13981864
234	0x3e463735	0.19356997
235	0x3bafbaf0	0.005362861
236	0xbe579ace	-0.21055147
237	0xbbb664d0	-0.005566217
238	0xbf1a89af	-0.6036634
239	0xbf16f918	-0.58973837
240	0x3e39cf46	0.18145475
241	0xbead6dd1	-0.33872846
242	0x3e6dd554	0.2322591
243	0x3e097204	0.134224
244	0xbee0de6e	-0.439197
245	0xbe2f2d22	-0.1710706
246	0xbf0a754c	-0.5408523
247	0xbe8d6e2f	-0.27623126
248	0xbe855ba0	-0.26046467
249	0xbf4b4825	-0.7940696
250	0xbe927a63	-0.28609
251	0xbec15feb	-0.37768492
252	0xbeec298f	-0.46125457
253	0xbe5b0ced	-0.2139165
254	0xbe942e78	-0.28941703
255	0x3e6152c8	0.22004235

fc2.weight f4 [128, 256]
0	0xbe94b9a7	-0.29047891
1	0x3cfae5c8	0.030627146
2	0xbde7f409	-0.11325843
3	0xbc8a8e60	-0.016913593
4	0xbe8fdfb2	-0.28100353
5	0xbdd2f6c2	-0.103009716
6	0x3d467f2c	0.048461124
7	0xbe77b5dd	-0.24190469
8	0xbd4d4550	-0.05011493
9	0x3da921b5	0.08258382
10	0x3c8d1e91	0.01722649
11	0x3dce4a97	0.10072821
12	0xbebd3986	-0.3695795
13	0xbdad9f9a	-0.08477707
14	0xbe36a1ac	-0.1783511
15	0x3d81e50e	0.06342517
16	0xbeb57412	-0.35440117
17	0xbe73c38e	-0.23805067
18	0xbe9f5e4a	-0.31126624
19	0xbccd43f4	-0.025056817
20	0xbe47c196	-0.19507441
21	0xbea1e19a	-0.31617433
22	0xbf039df7	-0.5141291
23	0xbd7fb451	-0.062427823
24	0xbda9dcd5	-0.082940735
25	0xbda5ea94	-0.08101383
26	0x3ca01b83	0.019544369
27	0xbe49afff	-0.19696043
28	0xbcd98b90	-0.026555806
29	0xbccbbbd1	-0.024869831
30	0xbd3353b7	-0.04378101
31	0xbde4e09c	-0.11175653
32	0xbea17003	-0.3153077
33	0xbd9326a7	-0.07185107
34	0xbdb71ab8	-0.08940643
35	0x3c12a880	0.008951306
36	0xbed9aec8	-0.4251616
37	0xbd52402b	-0.051330727
38	0xbea37ba3	-0.31930265
39	0xbdbff06d	-0.093720295
40	0xbe5d80d8	-0.21631181
41	0x3d7dc55f	0.061955806
42	0xbd9a9a9b	-0.0754902
43	0xbd002b71	-0.03129143
44	0xbe2d5c42	-0.16929725
45	0x3d840c18	0.06447619
46	0xbe050c73	-0.1299303
47	0x3d5a659b	0.053319555
48	0xbdb0965e	-0.0862243
49	0xbec588f0	-0.38581038
50	0xbdcde434	-0.10053292
51	0xbdd3c432	-0.10340156
52	0xbb863283	-0.004095377
53	0x3d2ec241	0.042665724
54	0xbe176f61	-0.14788581
55	0xbeb0a9cc	-0.34504545
56	0xbdca3921	-0.09874178
57	0xbe536934	-0.206456
58	0xbeef5af0	-0.46749067
59	0xbd008b03	-0.031382572
60	0x3cc37838	0.023861036
61	0xbd7e61b4	-0.062104896
62	0xbdd54c9e	-0.10415004
63	0xbe245ba0	-0.16050577
64	0x3c967822	0.01836783
65	0xbcaf8bd5	-0.021428982
66	0xba772c2b	-0.0009428884
67	0x3d4c0d70	0.049817502
68	0xbb37f995	-0.0028072346
69	0xbe9f7266	-0.31141967
70	0x3cd0bb0a	0.025479812
71	0x3b7a4044	0.0038185278
72	0xbdf253ab	-0.11832365
73	0xbd53884e	-0.051643662
74	0xbc4c2a81	-0.012461306
75	0xbdcf4c60	-0.10121989
76	0x3c7cb734	0.015424538
77	0xbc0b4221	-0.008499653
78	0x3d4c93f1	0.049945775
79	0xbd53a5a9	-0.051671658
80	0xbcc1e61e	-0.023669299
81	0x3d33798e	0.043817095
82	0xbeeed319	-0.4664543
83	0xbef0afbb	-0.47009072
84	0x3cfc7f7c	0.030822508
85	0xbdca7200	-0.09885025
86	0x3c1fa9b5	0.009745051
87	0xbecbe388	-0.3982203
88	0xbd806bd7	-0.06270569
89	0x3da00911	0.07814229
90	0xbda8d8b7	-0.0824446
91	0xbf070050	-0.5273485
92	0xbf194b9a	-0.59880984
93	0xbe0e7c0f	-0.13914512
94	0xbc3e324f	-0.011608674
95	0xbedfdc9a	-0.43722993
96	0xbe078b33	-0.13236694
97	0xbed8b65d	-0.42326632
98	0xbdda5072	-0.10659875
99	0xbeada189	-0.33912304
100	0xbd20635d	-0.03915726
101	0xbea27e68	-0.31737065
102	0xbda0f790	-0.07859719
103	0xbcc62ae5	-0.024190376
104	0xbcf8b2bb	-0.030358663
105	0x3c987f6a	0.018615443
106	0x3d1625f5	0.036657292
107	0xbe123317	-0.14277302
108	0xbdd465ef	-0.10371005
109	0xbedebda1	-0.4350405
110	0x3cb45774	0.022014357
111	0x3d91dd1d	0.07122252
112	0xbe0e76c0	-0.13912487
113	0xbaced35d	-0.0015779544
114	0xbdca61c0	-0.098819256
115	0xbe9ab6dc	-0.30217636
116	0xbf1a8aec	-0.6036823
117	0xbe15a54b	-0.14613836
118	0xbcb96326	-0.022630285
119	0xbd2b4844	-0.041816965
120	0xbd47f1a1	-0.04881442
121	0x3c495d50	0.012290314
122	0xbd13b3ff	-0.03606033
123	0xbd9b38ff	-0.075792305
124	0xbe54cdba	-0.20781603
125	0xbdda3f1e	-0.1065657
126	0xbdbd5bbe	-0.09246014
127	0xbcc61c95	-0.02418355
128	0xbd61edc3	-0.055158388
129	0x3c8f2808	0.017475143
130	0xbd4e8d61	-0.0504278
131	0x3b2f5a58	0.002675673
132	0x3d709e5f	0.058744784
133	0xbe49bc2e	-0.19700691
134	0xbda29798	-0.079390705
135	0xbd0a57ee	-0.033775263
136	0x3cb3565f	0.02189177
137	0x3cd5dfd7	0.026107712
138	0xbdf99e8f	-0.12188446
139	0xbd2913ec	-0.041278765
140	0xbda2a04b	-0.0794073
141	0xbcd3c41d	-0.02585035
142	0x3d2b6f76	0.041854344
143	0xbda6c459	-0.08142919
144	0xba9b2843	-0.001183756
145	0xbe50aaf1	-0.20377709
146	0xbd293692	-0.041311808
147	0xbdef80c1	-0.1169448
148	0xbdb95832	-0.09050025
149	0x3c46a57f	0.012124418
150	0x3db0459f	0.08607029
151	0x3ddc3c7b	0.10753723
152	0xbd4e80ca	-0.05041579
153	0x3c08e39c	0.008355048
154	0x3d99ece6	0.07515888
155	0xbe6db636	-0.23214039
156	0xbf274b46	-0.65349233
157	0xbb5707e9	-0.0032811111
158	0xbe4339cd	-0.19065018
159	0x3db51858	0.08842534
160	0x3dae8c68	0.08522874
161	0xbd43c9de	-0.047799937
162	0xbe851e03	-0.2599946
163	0xbd490725	-0.04907908
164	0xbd5c5766	-0.053794287
165	0xbcbe3a0f	-0.023221044
166	0xbe843cc0	-0.258276
167	0xbdb14190	-0.08655083
168	0x3d80554b	0.06266268
169	0xbe110bba	-0.1416463
170	0x3d370c3f	0.044689413
171	0xbeacf8da	-0.3378361
172	0xbdeb0e53	-0.114773415
173	0xbd96728a	-0.07346065
174	0x3d7d7a29	0.06188408
175	0xbd46880e	-0.048469596
176	0x3d294567	0.041325953
177	0xbd0bf47e	-0.034168713
178	0x3de19718	0.11015147
179	0xbee37c83	-0.44430932
180	0x3d3db480	0.046314716
181	0xbe1c8904	-0.15286642
182	0xbcb5eeab	-0.022208532
183	0x3d878ab4	0.066182524
184	0x3ddc71c8	0.107638896
185	0xbe9d66ef	-0.30742595
186	0xbe347bf0	-0.17625403
187	0xbd8e5df5	-0.06951515
188	0xbe17a15e	-0.1480765
189	0x3d1a88af	0.037728008
190	0xbd6630ae	-0.05619877
191	0xbd06b739	-0.03288958
192	0xbdb810b3	-0.0898756
193	0xbd810f12	-0.063017026
194	0x3d8f44e9	0.069955654
195	0xbec54420	-0.38528538
196	0x3d589818	0.052879423
197	0xbd7e2908	-0.06205085
198	0x3c70fb2b	0.014708321
199	0xbe5b3c51	-0.21409728
200	0xbe420ef3	-0.18951015
201	0x3d81b706	0.06333737
202	0xbe0da14c	-0.13831061
203	0x3d091f63	0.0334772
204	0xbe971234	-0.29506075
205	0xbd23e5d3	-0.0400141
206	0xbed113de	-0.4083547
207	0x3dd08ab0	0.101827025
208	0x3d8f7fa8	0.0700677
209	0xbe6954eb	-0.227863
210	0xbd674222	-0.056459554
211	0xbe57f9df	-0.21091412
212	0x3c285dfb	0.010276313
213	0xbe2c3352	-0.16816452
214	0x3cda9d55	0.02668635
215	0xbd105e08	-0.035245925
216	0xbdfffdfc	-0.124996156
217	0x3c973a6a	0.018460471
218	0xbea81cd2	-0.32834488
219	0xbe357247	-0.17719375
220	0xbe7af392	-0.24506977
221	0xbda815fb	-0.082073174
222	0xbdb0f1a3	-0.086398385
223	0x3db7b42e	0.089699134
224	0xbd9c69ef	-0.07637393
225	0xbb374980	-0.0027967393
226	0x3d85dc50	0.06536162
227	0xbefb326f	-0.49061915
228	0xbd25e6e3	-0.040503394
229	0xbd1f1663	-0.03883971
230	0x3dcddc46	0.100517794
231	0xbb563808	-0.0032687206
232	0xbe1c43fa	-0.15260306
233	0x3c3deacc	0.0115916245
234	0xbe2dbfd6	-0.16967711
235	0x3c95ad23	0.018271035
236	0xbd98c1f7	-0.07458871
237	0xbd13f14d	-0.036118794
238	0xbd8f4b48	-0.06996781
239	0xbdc52d52	-0.09627785
240	0xbda14c7f	-0.078759186
241	0xbc12a959	-0.008951508
242	0x3bcb409f	0.006202772
243	0xbc7f7295	-0.015591283
244	0x3d529731	0.05141372
245	0xbd958937	-0.07301562
246	0xbcd29bc5	-0.025709042
247	0xbe8be4e4	-0.27323067
248	0xbee01506	-0.4376604
249	0xbd5bae57	-0.05363306
250	0x3cb9d1ca	0.022683043
251	0xbd4c85de	-0.049932353
252	0xbea5bc45	-0.323702
253	0xbcd8b750	-0.026454598
254	0xbe060985	-0.13089569
255	0xbe45fc0a	-0.19334427

fc2.bias f4 [128]
0	0xbd4f2c70	-0.05057949
1	0xbe0ca7cc	-0.13735884
2	0xbb0e41b1	-0.0021706636
3	0xbdc1809e	-0.0944836
4	0xbdbf39c0	-0.09337187
5	0xbd45b6df	-0.048270103
6	0x3e2807e0	0.16409254
7	0x3cdc2f56	0.02687804
8	0x3c7d12fe	0.015446423
9	0xbc807043	-0.01567853
10	0xbdd70047	-0.104981
11	0x3cd72bcf	0.026266007
12	0x3bfb0ce4	0.007661449
13	0xbde5c3ec	-0.1121901
14	0x3de39ea1	0.111142404
15	0x3d86841b	0.06568166
16	0x3d3cce02	0.0460949
17	0x3cfd0ebd	0.030890817
18	0x3d25f6da	0.04051862
19	0xb91935b9	-0.0001461123
20	0xbd06b099	-0.03288326
21	0xbe379112	-0.17926434
22	0xbd85eb13	-0.065389775
23	0xbd6ef38d	-0.058337737
24	0xbbf81e7d	-0.007571994
25	0x3d624e36	0.05525037
26	0x3e3006ef	0.17190145
27	0xbd9daf1f	-0.07699417
28	0xbdb4f614	-0.08835998
29	0xbcd63b54	-0.026151337
30	0xbdf65cd5	-0.12029425
31	0x3ab13072	0.0013518466
32	0xbcbce5d4	-0.02305881
33	0xbb41ae6e	-0.002955343
34	0xbe2e38f3	-0.17013912
35	0x397a17c9	0.00023850719
36	0x3e0b2895	0.135897
37	0xbd8b42c5	-0.06799845
38	0x3cd65555	0.026163736
39	0x3e90a18d	0.28248253
40	0xbd28bc5a	-0.04119525
41	0x3e40d86e	0.18832561
42	0x3c228062	0.009918304
43	0x3d060b88	0.03272584
44	0xbd367bd1	-0.044551674
45	0xbdb432b2	-0.08798732
46	0xbc1c9cec	-0.009558897
47	0xbe49a87e	-0.19693181
48	0xbd417fba	-0.04724095
49	0xbd45aed0	-0.048262417
50	0xbccb5068	-0.024818614
51	0xbd81df6d	-0.06341443
52	0x3ca9c8ed	0.020725692
53	0xbd7713ad	-0.0603215
54	0xbc969fd0	-0.018386751
55	0x3c6bcd22	0.014392169
56	0xbde4ad70	-0.11165893
57	0xbc70efea	-0.0147056375
58	0x3c7ee096	0.015556475
59	0xbda9698c	-0.082720846
60	0x3cc241a0	0.023712933
61	0xbd31c228	-0.043398052
62	0xbcae3316	-0.021264594
63	0xbe1be9e9	-0.15225948
64	0xbdfa1bf8	-0.12212366
65	0xbd9f4dbd	-0.07778499
66	0xbdb8c569	-0.09022028
67	0x3eab21fc	0.33424366
68	0x3b42cff2	0.0029725996
69	0xbc0a5a05	-0.008444314
70	0x3e662371	0.22474457
71	0x3c550c2d	0.013003391
72	0xbd6e577f	-0.05818891
73	0x3dc7e4dd	0.09760449
74	0xbd7d9ef3	-0.061919164
75	0x3c977892	0.01849011
76	0xbd6230e9	-0.055222426
77	0xbe331267	-0.17487489
78	0x3d102912	0.035195418
79	0xbd0cd54a	-0.034383096
80	0x3e5db08d	0.2164938
81	0x3c0e5601	0.008687497
82	0xbda39d57	-0.079889946
83	0x3cd0b466	0.025476646
84	0xbd786bfb	-0.060649853
85	0xbc20b130	-0.00980787
86	0x3def7ebd	0.11694095
87	0xbd74c2a4	-0.059755936
88	0xbbd093ef	-0.0063652913
89	0x3cf2ef10	0.02965501
90	0xbd82de03	-0.063900016
91	0x3d341ccf	0.043972787
92	0xbd4a4cfa	-0.049389817
93	0xbd4f0944	-0.050545946
94	0xbdda095f	-0.10646319
95	0xbd4b9bdd	-0.04970919
96	0xbde561b6	-0.112002775
97	0x3e276b35	0.1634949
98	0xbd39b8e7	-0.045342352
99	0xbc8c9ec4	-0.01716555
100	0xbdb2e482	-0.08734991
101	0xbd2aa1dc	-0.041658267
102	0x3ec633f9	0.38711527
103	0xbdefd89a	-0.11711235
104	0x3de2fe4e	0.11083661
105	0xbd89421c	-0.067020625
106	0xbd2e8a56	-0.042612396
107	0xbd9de663	-0.077099584
108	0xbdd751e6	-0.10513668
109	0xbe4544a7	-0.1926447
110	0x3d0d2e84	0.03446819
111	0xbd2945c3	-0.041326296
112	0xbcdef5ce	-0.027216818
113	0xbd3d9c8b	-0.04629187
114	0xbd0a8862	-0.03382147
115	0xbcff97d3	-0.031200325
116	0x39f7de13	0.0004727697
117	0xbd1035f7	-0.035207715
118	0xbe1a7d4e	-0.15086862
119	0x3e025bf4	0.1273039
120	0xbd7e99cd	-0.062158395
121	0x3c02a2b8	0.0079733655
122	0x3c4319e0	0.011908025
123	0xbda18066	-0.07885818
124	0x3c4557ce	0.01204486
125	0xbc576662	-0.013146969
126	0x3c254212	0.010086553
127	0xbd8079b0	-0.0627321

fc3.weight f4 [1, 128]
0	0xbed9236e	-0.42409843
1	0x3f55040e	0.8320931
2	0x3e61f240	0.22065067
3	0x3e2805fb	0.16408531
4	0x3e817f55	0.2529246
5	0xbd3c7ffb	-0.04602049
6	0x3ebc3c00	0.36764526
7	0x409aa764	4.8329334
8	0x3b6b41f7	0.0035897472
9	0xbe4ab433	-0.19795303
10	0x3d11c0ee	0.035584383
11	0xbe299d45	-0.165639
12	0x3adb495f	0.001673024
13	0xbe09732c	-0.13422841
14	0x3e1465de	0.14491984
15	0xbf98f8f4	-1.1950974
16	0x3e18a19f	0.14905404
17	0xbbaab60e	-0.005209691
18	0xbd02c9f8	-0.031930894
19	0xbd84e088	-0.064881384
20	0xbdf3e007	-0.11907964
21	0x3db93543	0.09043362
22	0x3ef793c5	0.48354927
23	0xbda13b4d	-0.07872639
24	0x3bf0b36b	0.007345607
25	0x3dff0409	0.124519415
26	0xbdc62cba	-0.096765
27	0xbaf63b39	-0.001878596
28	0xbf438f2f	-0.76390356
29	0x3dca7b3e	0.09886788
30	0x3ec43cc4	0.3832761
31	0x3e5a0613	0.2129138
32	0xbe91cf1a	-0.28478318
33	0xbd0e3ea2	-0.0347277
34	0xbdb1c932	-0.08680953
35	0xbd72d9fb	-0.059289914
36	0x3eaf213a	0.34205037
37	0xbbe4ac1c	-0.006978525
38	0xbb465bdc	-0.0030267155
39	0xbea6c9b1	-0.32575753
40	0xbd544f6e	-0.051833563
41	0xbe47ab5e	-0.19498965
42	0x3d9582b6	0.07300322
43	0xbe529305	-0.20563896
44	0x3ccef24d	0.025262022
45	0x3be39e21	0.0069463407
46	0x3cb8939e	0.022531327
47	0x3f2feca8	0.68720484
48	0xbc1e33bf	-0.009655892
49	0xbd06963b	-0.032858115
50	0xbf22ed8e	-0.6364373
51	0x3b19113d	0.0023356222
52	0x3bf4d008	0.0074710883
53	0xbe050c64	-0.12993008
54	0xbe86a643	-0.26298723
55	0xbd4e1125	-0.05030932
56	0x3dba17f8	0.09086603
57	0xbdf86141	-0.12127925
58	0xbe9c2552	-0.30497223
59	0xbce9326e	-0.02846643
60	0xbc9dff0c	-0.019286655
61	0xbeb50c23	-0.35360822
62	0x3ce7ad15	0.028280774
63	0xbe88cef6	-0.267204
64	0x3cf7c1f2	0.030243848
65	0xba48fc65	-0.0007667004
66	0x3d82baa3	0.063832544
67	0x3dcac6c5	0.099011935
68	0xbfd2e7dc	-1.6477008
69	0xba781c6f	-0.0009464686
70	0x3f001949	0.5003858
71	0x3dd689cd	0.10475502
72	0x3df265bf	0.11835813
73	0xbec4d0c0	-0.38440514
74	0x3b7d02c4	0.0038606385
75	0xbe0bda10	-0.13657403
76	0xbd8da90c	-0.06917009
77	0xbdf40ecf	-0.11916887
78	0xbf27c2cf	-0.6553163
79	0x3d8020b3	0.06256237
80	0xbe868f5d	-0.26281253
81	0x3bac5cf5	0.005260105
82	0x3e5c6504	0.2152291
83	0xbde99bf9	-0.114067025
84	0x3ff16631	1.8859311
85	0x3fbd92e1	1.4810449
86	0x40841d1a	4.1285524
87	0xbf27e4bf	-0.65583414
88	0xbe2e443a	-0.17018214
89	0x3bb72b03	0.005589844
90	0x3caa019c	0.02075272
91	0x3c0fb493	0.00877108
92	0xbbb8fd96	-0.005645464
93	0xbe265be6	-0.16245994
94	0xbd6e006b	-0.058105867
95	0x3c06b484	0.008221749
96	0x3e6d53b8	0.23176467
97	0x3e934dcb	0.2877029
98	0xb8b30846	-8.536926e-05
99	0x40441b44	3.0641642
100	0xbf2c6e5a	-0.67355883
101	0xbc86dfb7	-0.016464097
102	0xbe0742ab	-0.13209026
103	0xbf9d3b32	-1.228369
104	0xbead33a9	-0.33828476
105	0xbe3b5903	-0.18295674
106	0xbd1486c1	-0.036261324
107	0x3e689ad0	0.22715306
108	0x3f87b63f	1.0602492
109	0x3e386d2e	0.18010399
110	0xbdbe4516	-0.09290521
111	0xbc39459a	-0.011308098
112	0x3c364208	0.0111241415
113	0xbd63bdfb	-0.0556011
114	0xbd27e295	-0.04098757
115	0xbe973a70	-0.29536772
116	0xbe4203ef	-0.18946813
117	0xb99de43e	-0.00030115427
118	0x3e26cff1	0.16290261
119	0xbeabef14	-0.3358084
120	0x3f3f5162	0.74733555
121	0xbc5a6fbc	-0.013332304
122	0x3bb90bdf	0.005647167
123	0x3b856f65	0.004072117
124	0xbc070a62	-0.008242222
125	0x3f2235be	0.63363254
126	0x3a742dc7	0.00093146827
127	0xbb833a8a	-0.004004781
