ddpg/model/critic.pth (torch, 139454 bytes, 5 tensors)

fc1.weight f4 [256, 4]
00000000: d5a9 c3bd 4841 77bf 4fa8 dcbe e93b 24bf
00000010: 199f 90bf 8958 08bf 4f5f 59be 0726 73be
00000020: d35e 8bbf 58b8 38bf 3aca a9be d0d4 06be
00000030: a78a b53d c2eb bc3e 60de b63e b40f e4be
00000040: f045 21be dd40 e93d 3dfa 793e 23c1 45bc
00000050: b9ea a13f 2ef7 973f e359 593e 7541 7a3e
00000060: 6899 883c 6c51 a53c 84d7 f63e 90dc 313d
00000070: 9ff0 11bf 462d 9ebf 1844 d0bd 061a 8dbe
00000080: be4e 96be f198 3cbf c6d2 2cbd a223 acba
00000090: 8f22 b13f c49e ed3e a32b b6be c225 2fb7
000000a0: 1ed3 5bbf 4c50 cdbe 6e69 af3d a0a7 593e
000000b0: 02c5 6b3e 99ad c13e b7a9 10be 6d8b bcbe
000000c0: 29b4 c9be fe00 093f a8d4 b1bd 50ab 763e
000000d0: 935b 47bf 8f1f c2bc bfc5 38be 937d 85be
000000e0: 3647 913f bc8f 353d 70e1 b2bd 2215 0e3f
000000f0: e855 dfbe 9d4f 823f 9d47 68be b0b3 aebe
00000100: 640a 98be a4a8 1ebf 4de9 24be ef2d 9abd
00000110: 86c0 9ebf 0187 5e3f a2e0 143e 4da6 55be
00000120: 66b8 e9be 105b 3ebe 40b9 91bc c423 3c3e
00000130: 4b18 b63e bfd6 cc3f c92f 7d3e bbf4 adbe
00000140: a39b f6bc f837 6c3e 1eb1 143d 411c a1be
00000150: dcfc 63bf 8ced 7a3f 54f1 803e 17ca ac3d
00000160: 0929 8d3f 1e73 2fbe 129f eebe 77d4 73be
00000170: 75af 4f3e f0c1 0abf 2a42 5fbd ba7d a73e
00000180: c87d a1bf aa8d 0dbf aad9 92be e3e8 6b3c
00000190: 6b27 8abf c11a dfbf 40ec 88be adc0 73be
000001a0: 5e00 45bf c79b 153d 35f1 b03d ac90 71be
000001b0: c029 c6be 2c2c 253f 229f aabd ca37 34be
000001c0: 4d9d 523e 161a ebbd 2839 703c 0c5f 38be
000001d0: 654c af3f 4889 96be bbf5 5bbe 8a50 043b
000001e0: fc54 603f 182c c43e 63cb b33e 5068 033d
000001f0: 67fb 37bf b443 8abe a81f acbe f30f 313e
00000200: 6e14 733e 9bfd 0a3f ba88 09bf 86b1 1a3e
00000210: 8876 08bf cb68 a63f 5efb 9b3e 3c84 3a3e
00000220: b0dc f1be 06de 16bf 9f5d df3d 1304 a6be
00000230: e579 bfbe 3ae8 b23f d1d0 873c d60a bdbe
00000240: 26be 5b3f 0e1f de3e ac0c b33e 03d6 a43c
00000250: bbe5 2fbf 42a1 21bf 3464 443e f4c6 91be
00000260: 1e65 5c3e 5690 1bbf 6d13 6cbe 0384 a8bd
00000270: 8d2f 71bf 7da3 54be 292e 58be c54d 28be
00000280: 7d8a c5bf f9e0 8f3f 4083 8d3e 8bfe b2bd
00000290: 4ab4 bcbe d9a7 f23e 7cf0 e83e 7310 15be
000002a0: ab1b 43be f4d6 cebe 8c89 00bd 4456 183f
000002b0: 4b6b 103f 7484 923f 10a2 713e cfb4 05bf
000002c0: 6b9a a6bf fce8 2ebf 8e43 363e a4d8 6cbc
000002d0: 7aa2 67be fbf3 bcbf 457c f9bc e89d 663e
000002e0: 5435 f9be ecb2 833f 39f9 c13e b580 c03d
000002f0: a082 c43e de09 b3be f4a8 b6be afd4 ee3e
00000300: 9654 f8be 7898 623e a4b7 c93e ce99 523d
00000310: 6f8b afbf 3015 4dbf 8900 5cbe 5500 85be
00000320: 9bb9 3a3f f683 3bbf 5dfe 96bd 340f 5abc
00000330: 038f 02bf 7c82 88be e3fc 083f ee61 0ebe
00000340: 4703 203e 1e8a 89be 4fe5 26bf 51c4 3cbf
00000350: b111 833e b30d 713f 9c41 453e 3b59 c23e
00000360: 59ad 87bf 8cb7 97bf 6568 d9be a44b 343d
00000370: 63ec 0dbe 07ae 0340 ad4d e4bd 9b52 50bf
00000380: 27d9 8bbf 3755 79be 175d 86bd 240e d1be
00000390: f1ae 213f 0e8c 883e e222 82bd 591e 45bf
000003a0: 3d23 9a3f b422 c23f 3b6d 69bd 47c7 96be
000003b0: 2a6e b6bd b7df c23f e467 9f3e 7f5f 223e
000003c0: eb5a c9bd edc5 dc3d bc1a 223e b7da 34bd
000003d0: 3408 073e 30a0 a8be 539a 8f3e d0a8 593e
000003e0: 96c2 43bf 1bfc 443c 902d a23d e3c8 833e
000003f0: 1739 eebe 3918 e1bf 9e0a f93d f3e8 1a3e
-0.09553877 -0.96583986 -0.4309716 -0.64153916 -1.1298553 -0.53260094 -0.21227764 -0.23744975
-1.0888313 -0.72156286 -0.331621 -0.13167119 0.088643365 0.3689862 0.35716534 -0.4454323
-0.15749335 0.11389325 0.24411865 -0.012069973 1.2649757 1.1872308 0.21225695 0.24439032
0.016674712 0.020180427 0.482113 0.043423235 -0.57007784 -1.2357566 -0.10169238 -0.27558917
-0.2935695 -0.7367087 -0.042193197 -0.0013133178 1.3838671 0.4641019 -0.35580167 -1.0439604e-05
-0.85869014 -0.40100324 0.08565031 0.2125535 0.23024371 0.37827757 -0.14127241 -0.36825123
-0.39395264 0.5351714 -0.08683139 0.24088788 -0.77874106 -0.023696689 -0.18044184 -0.26072368
1.1349857 0.04432653 -0.08734405 0.55500996 -0.4362023 1.0180546 -0.22683568 -0.34121466
-0.29695427 -0.61976075 -0.16104622 -0.075282924 -1.2402503 0.8692475 0.14538816 -0.2086422
-0.45648497 -0.18589425 -0.01778853 0.18373019 0.3556541 1.6003035 0.2472526 -0.33975777
-0.03010351 0.23068225 0.036301725 -0.3146687 -0.8905771 0.9801872 0.2518412 0.08436983
1.1028148 -0.17133757 -0.46605736 -0.23811518 0.20281775 -0.54202175 -0.05450646 0.3271311
-1.261651 -0.5529429 -0.2868169 0.014398786 -1.079328 -1.743004 -0.26742744 -0.23803969
-0.76953685 0.036525514 0.086397566 -0.23590344 -0.38703728 0.64520526 -0.083311334 -0.17599407
0.20567818 -0.11479585 0.014662065 -0.18005008 1.3695189 -0.29401612 -0.21480457 0.0020189607
0.87629676 0.3831489 0.3511611 0.032081902 -0.71867985 -0.27004778 -0.33617902 0.1729124
0.23738262 0.5429322 -0.53724253 0.15106782 -0.53305864 1.300073 0.30465215 0.18214506
-0.47238684 -0.5893253 0.10906529 -0.32424983 -0.37397686 1.397712 0.016579064 -0.3692233
0.8583702 0.43383068 0.34970605 0.02012158 -0.68709916 -0.63136685 0.1917885 -0.28472102
0.21522948 -0.60767114 -0.23054285 -0.08228304 -0.9421318 -0.20765491 -0.21111359 -0.16435917
-1.5432888 1.1240531 0.27639198 -0.087399565 -0.368563 0.47393683 0.45495975 -0.14557056
-0.19053523 -0.4039837 -0.031381175 0.5950663 0.56413716 1.1446671 0.23596978 -0.52229017
-1.3015875 -0.68324256 0.17799208 -0.014455948 -0.22620574 -1.4761957 -0.030454764 0.22521174
-0.486735 1.0288978 0.37885454 0.09399549 0.3838091 -0.34968466 -0.35675776 0.4664664
-0.48502034 0.22128475 0.3939792 0.05141621 -1.3714427 -0.80110455 -0.21484579 -0.25976816
0.7293946 -0.7324823 -0.07372735 -0.013309289 -0.5099947 -0.26662052 0.53510875 -0.13904545
0.1562625 -0.26863188 -0.6519365 -0.73737055 0.25599435 0.9416153 0.19263309 0.37958702
-1.0599777 -1.1852889 -0.4246246 0.04401745 -0.13859706 2.0574968 -0.11147628 -0.81376046
-1.0925645 -0.24348913 -0.06560724 -0.408311 0.63157564 0.26669353 -0.063543096 -0.7699943
1.2042004 1.516684 -0.056988936 -0.29448912 -0.08907731 1.5224522 0.3113395 0.15856741
-0.09831794 0.10779939 0.15830511 -0.044153895 0.13186723 -0.32934713 0.28047428 0.21255803
-0.7646879 0.012022997 0.079188466 0.25739202 -0.4652793 -1.7585517 0.12160228 0.15127926

fc1.bias f4 [256]
00000000: b9cc 74bf e080 4dbe 9a41 453f 668b 973f
00000010: 032c 7f3f 3f1d febe faee 853e 5dd2 8d3e
00000020: e9a8 d33e 743a 0bbf 8929 27bc 008a 4c3f
00000030: 5f5d 073f ec6a 053f a8f5 6ebf c44c 9e3d
00000040: 929c 063f 5bbd dc3e f124 f53e fe78 163f
00000050: fa5e 083f 91e9 9a3e 9a4d c2be fb88 0f3f
00000060: 7210 7e3e 1b6a f6bd 6eb6 9cbe 663b 1f3f
00000070: 5d00 5d3f 25ff e73e 082a 35bf 77a8 9d3e
00000080: 5e69 d23e 2be8 593e aaff 91bf a03f bc3d
00000090: aa1e 30bf ab5c 0e3e 9030 163f 2687 6bbe
000000a0: 7d59 743d d24e c0be 8855 993e ec44 373f
000000b0: b5d0 3d3e 0fcb f43e bf24 74bf 74cb 163f
000000c0: f331 573f 5737 32bd 71c4 fb3e 8542 c4bd
000000d0: 3fa4 6dbf 3ddd 01be 6aff 30bf 0edf ba3e
000000e0: 1e43 fc3e 18d9 8d3f e284 39be a43e 84be
000000f0: 95e9 183f 00ce 84bc 0e50 233f 7765 28bf
00000100: 4335 6bbf 8a47 743e 2680 4c3d b029 16be
00000110: 2df4 f93c 359f 99be 0b61 163e b62c 0abd
00000120: edf1 ce3c 33ea 223f 17d0 143f ba3b 2c3f
00000130: 588d 77bf 16d0 213e 8b17 d3bd 68bb ee3e
00000140: 72f7 3cbc 9b7a acbd 58f5 663d b485 9ebe
00000150: 5063 2e3f f75d ffbe f927 073f 6b30 ed3e
00000160: fda0 3a3f dfc4 313f 23e5 513f 465e 3e3e
00000170: fe95 d93e a489 4fbe 7347 9a3e f4d6 393f
00000180: 2d51 12bf 0505 463e ab21 81be ebb3 56be
00000190: 9c97 2cbe 469d 4c3f 3739 7f3f 54ce 97be
000001a0: 9298 4dbe e98a 803f 4f58 693f 5cab 7e3f
000001b0: db61 2c3f 06fb 71bf dda2 b33e 41df 863d
000001c0: 35f2 65bd 091c 74be c123 33bf 8926 a2be
000001d0: 8ad1 e0bd b5d7 cc3e 7335 36bf 7d20 4a3f
000001e0: 5b75 d63e eb95 cabe d133 043f a76a 5d3f
000001f0: 757c 84bf f813 063f 35ab 88bd eb3f 14bf
00000200: 1898 4b3f 9571 e13e 948e 4bbf e878 2f3f
00000210: 440d 50bf 4eab d53d 4f08 9abe 7aa0 28bd
00000220: cf4b 213f 6baa 2f3f 00b0 3cbf 3892 d83d
00000230: 0da2 983e 4c66 f33e e4fa 02bf 8308 1ebf
00000240: 54b1 7e3c 83fe 4c3f 3c3c 24bf 7817 033f
00000250: 669d da3d 794e acbc ff5a 59bf 7ced 2e3f
00000260: 823c 463e be06 e4bd cb27 8e3e ed02 603f
00000270: c935 ba3e 267c 19bf 41fd 543f 228c 1abf
00000280: 51a0 38bf 0fe6 383f 698d 2bbf 1717 383f
00000290: 3b4b f93e dabf 43be 1aef 9e3e 2db1 da3e
000002a0: 8c60 d63d 923e 243f d492 44bf 006f 02bf
000002b0: 64cd 5e3f 93b7 afbe 5781 4f3f 3e60 923e
000002c0: 5fca 1ebf 0b20 3cbf 23b8 cf3c 10b7 583e
000002d0: 210e 6f3f 1b46 973d 7a22 c6be 9545 113f
000002e0: e9d9 1d3f 8807 db3d f51e 09bd 29e2 08bf
000002f0: 29b4 20bf 17d9 89bf ad7f 8c3e 5584 8bbf
00000300: 11d6 cdbe a89d e23e b783 413f 479e 2bbf
00000310: 99a2 afbe 2743 07be 5c71 18bf 334a 1a3f
00000320: a2d2 cebe aa82 5f3f 2c79 f83e 57a6 4c3c
00000330: 88d7 aa3e 54a1 803e b0f5 093e d561 9fbe
00000340: 7b75 f83e 11a1 fe3e 2d40 483f cce7 973e
00000350: f1a8 b7bd ab90 82bf 5aae 0c3f 6c10 513f
00000360: 48ff 8f3e 03ab b0bf 898c 80bf bd5e 15bf
00000370: 2026 80bf cf69 bc3e fc9e 42bf eac1 383f
00000380: 21b8 bb3e 8228 aabd dcfe b8be 62d1 50bf
00000390: 37cd 41be c0f9 9abe 1023 733d 7bc4 0dbf
000003a0: 4405 3dbf db8f b03e a2aa e73c c69f 6abf
000003b0: 45d3 cc3e 0006 83be 70cc 95be f839 e13e
000003c0: 35c6 a03e 1c84 b3be ba5b 0dbf 14f3 b6be
000003d0: e07b 0e3f 6a76 623f 77f2 e8be 3190 4a3f
000003e0: 206f a6bf aa0f ad3d 7bec 163e 4ab9 07be
000003f0: d33d 3f3e adcf 393f c080 213f 8283 233e
-0.9562488 -0.20068693 0.77053225 1.1839416 0.9967653 -0.49631688 0.26158887 0.27699557
0.41339806 -0.5438607 -0.010202774 0.7989807 0.5287685 0.52116275 -0.9334359 0.07729486
0.5258266 0.43113217 0.47879747 0.5877837 0.5326992 0.30256322 -0.3794983 0.5606839
0.24810961 -0.12031957 -0.30607933 0.6220001 0.8632868 0.45311847 -0.7076726 0.3079259
0.41096014 0.21279971 -1.1406147 0.09191823 -0.6879679 0.13902538 0.5866785 -0.23000774
0.059655655 -0.37560135 0.29948068 0.7158954 0.18536647 0.4781117 -0.9536857 0.58904195
0.8406059 -0.043509807 0.4917331 -0.09583 -0.92828745 -0.12682052 -0.6913973 0.36498302
0.49269956 1.1081877 -0.18117097 -0.2582904 0.5973142 -0.01621151 0.6379403 -0.65779823
-0.91878146 0.23855415 0.0499269 -0.1466434 0.03051194 -0.30004278 0.14685456 -0.033734046
0.025261844 0.6363861 0.5813002 0.67278636 -0.9670005 0.15802035 -0.10307225 0.46627355
-0.011533605 -0.08421823 0.05638632 -0.30961382 0.6812029 -0.49876377 0.5279537 0.46326002
0.729019 0.69441026 0.8199026 0.1859065 0.42497247 -0.2026735 0.30132636 0.7259362
-0.57155114 0.19337852 -0.25221 -0.20967071 -0.1685471 0.7992748 0.9969668 -0.29649603
-0.20077732 1.0042392 0.91150373 0.99480224 0.67336816 -0.94523656 0.35085192 0.06585551
-0.05613919 -0.2383882 -0.6997643 -0.31670025 -0.109774664 0.4000832 -0.7117531 0.78955823
0.4188641 -0.39567503 0.51641566 0.86490864 -1.0350481 0.5237422 -0.0667328 -0.5791003
0.7952895 0.4403197 -0.7951443 0.68543863 -0.8127024 0.104330644 -0.30084464 -0.041168667
0.630063 0.6861941 -0.73706055 0.10574764 0.29811135 0.47538984 -0.5116408 -0.6173174
0.015545208 0.80075854 -0.6415441 0.51207685 0.106745526 -0.021033512 -0.84904474 0.6833112
0.1935902 -0.111340985 0.27764735 0.87504464 0.3636916 -0.5995506 0.83198935 -0.60370076
-0.72119623 0.7222604 -0.6701265 0.7191023 0.4869021 -0.19116154 0.31041795 0.427133
0.104676336 0.64157975 -0.7678654 -0.5095062 0.8703215 -0.34319744 0.8105673 0.28589052
-0.62027544 -0.73486394 0.025356358 0.21163583 0.93380934 0.073864184 -0.3869818 0.567468
0.6166063 0.10694796 -0.03347679 -0.53470093 -0.627749 -1.0769376 0.2744116 -1.089976
-0.40202382 0.44260907 0.75591606 -0.6703839 -0.3430374 -0.1320921 -0.5954797 0.6026947
-0.40395075 0.8730875 0.48529947 0.01249083 0.33367562 0.25123084 0.13472629 -0.31129327
0.4852713 0.4973226 0.78222924 0.29669034 -0.0896777 -1.0200399 0.5495354 0.8166568
0.28124452 -1.3802189 -1.0042888 -0.58347684 -1.0011635 0.36799476 -0.7602384 0.7217089
0.36663917 -0.083085075 -0.36131942 -0.8156949 -0.1892594 -0.3026867 0.05935961 -0.5537793
-0.7383616 0.34484753 0.028279606 -0.91650045 0.40004936 -0.25590515 -0.29257536 0.4398954
0.3140122 -0.3506173 -0.5521809 -0.3573233 0.5565777 0.88461936 -0.45497486 0.7912627
-1.3002663 0.08450253 0.14738648 -0.13254276 0.18675928 0.72582513 0.6308708 0.15968135

fc2.weight f4 [128, 256]
00000000: 12d0 8abe acae a73d 5a68 353e a33b 21bd
00000010: 18c5 e73d 7948 2dbe cffb 22bd d47f 61be
00000020: 93b8 953c 122c 2e3f ee59 5b3e ce5a f93d
00000030: 2a64 343e 575b 133e 22c2 73be 3891 093c
00000040: 86c5 683d ad03 eabd 6d62 d03d ea2f 5e3e
00000050: 7d76 223e 5dca b6bc ae88 083f b413 993d
00000060: aecc a23d 0e31 c03d 6e20 05bc 3f08 7e3e
00000070: 9c7e 0e3e 2fa1 003f c2f8 1ebf 64a2 163e
00000080: 5244 05bd 9d73 57be 9215 3abf 2ae7 0f3e
00000090: 333b 0ebf d010 81bd a4c8 83bd 8d0e d43d
000000a0: 7cfc 0e3e cbad e8ba da96 003e 0814 3f3e
000000b0: 977c cf3e 4cc1 3fbe 20a7 1dbd 8d04 b43d
000000c0: 61e8 073e 4eca 34be 701d e73d 9819 99bd
000000d0: 86f4 24bd 96b2 c83c 7c9f 4fbe 6109 30bb
000000e0: 6a3b 4c3e f391 fd3d 1c9f c13e 546b e4bd
000000f0: d95c d53d 3adc aabd a139 903e e4f3 a8be
00000100: 163e c8be 74a9 5b3e f3a7 7cbd cf4b 3c3e
00000110: 6918 43bd 4ab8 8abe a38b 373e 15cc 27be
00000120: 7e2e a6bc 0f21 143e c7e5 153e 0996 623e
00000130: 6777 afbe d48d 5ebe 3d98 4e3e f561 013e
00000140: 0194 233e a573 b5bd 64bc 8b3d a85b 5bbe
00000150: 55da d13d e02e 87be 935d 543d 9db1 623b
00000160: c41f 493e 47e0 4d3e cd1e 1f3e 652d 793e
00000170: 808d 073c 3a3e 3abd 7955 12bd 705d ba3c
00000180: c62f 05bf 18c5 3d3e 56c3 7e3d 4f88 f4be
00000190: f7b2 4a3e d369 9e3d 885b 4c3e aa3a 913e
000001a0: fa0a f33d e4d8 79bd 7e28 783e 9fee 3a3e
000001b0: 3b2a 863e b562 5abe 959f e73d 7887 22be
000001c0: 0a3e 0fbe 6f74 b3bc 48ea b3be ba9c e23e
000001d0: 5e88 073e 8461 a93e 7808 b23e 0623 88be
000001e0: fd04 4c3e efd8 aabe e741 30be bed8 923e
000001f0: 011f b2bd b8d9 9d3e 5d18 08bf 5264 03be
00000200: d3fe 403d adc8 c0bb fa98 9ebe bbd7 b4bc
00000210: 2bf5 743f bb7d 143e fb76 9d3e b169 b3bd
00000220: 54a3 883c 58a4 793c ec62 59be 4099 813d
00000230: 1017 bfbd d9c7 563e 8071 adbe 686e d1bb
00000240: eee1 8dbe a7c0 b23d 911f 53bf 8f15 483e
00000250: eb97 0d3f e290 47bd c9f5 81be 2e37 1d3e
00000260: e2af 0e3e 9656 22bd 8130 1a3e 6a91 c63e
00000270: a090 323d 37d4 57bd 9304 673e 10a6 7ebe
00000280: fae3 b6be 0fc5 683b be12 b1be 85e6 ed3d
00000290: 8219 e63c bd43 813d cf59 153d 73b2 8b3d
000002a0: 8c50 12be 25c0 843d 8f93 92bd cba5 5bbe
000002b0: cbfe 8fbd b681 403e f00a 103c 1334 393e
000002c0: f9f2 65be d051 e4bd db76 e63d 00e4 7e3e
000002d0: 8799 893e 8454 8f3d 62c0 b1be e46e 273e
000002e0: 7015 813e cbee 42be ec7e 643d 2d10 09be
000002f0: 762b c5be 8620 95be e730 8e3e 418a 993e
00000300: e129 d6be f62c b5bc d45c 8b3e 1a0c 51bd
00000310: a9c4 3b3d 2227 44be 87ec 8b3e 1959 983e
00000320: 0925 94be 4cb7 463e de4c 3c3d b55a 053f
00000330: 04ed 6cbc aa87 bf3d 9b64 123d 57ae 47bd
00000340: c6b8 803e fada 693e cd89 c33d 1981 273f
00000350: 6149 9bbe e092 51bf 2cb9 093e fd95 063e
00000360: ef25 273e 3bb7 e93e cf00 2abf b748 b2bd
00000370: d0a5 793f d5ab ea3d 018f 523f d5f9 303c
00000380: 28a1 2a3e 32ed 06be 3920 c4bd 16bd d03e
00000390: 8426 cc3e cb2e 1fbe 3c6b 6d3d 67ef 7f3e
000003a0: e0c2 19be 2c3c a0bd 51c0 51bd 0cd4 16bf
000003b0: 68f0 6a3e b046 d03b b3fc 8e3e 5b30 2d3e
000003c0: dbb0 f93d e827 1cbc b877 9cbd 63d9 14bf
000003d0: d379 5e3e d09c 453e d219 53be 3c66 47bc
000003e0: 1bd6 7dbf b185 24be 0cf7 363e a037 203c
000003f0: 221c 8b3e b4c5 303d 056b 993e 4200 113e
-0.2711187 0.08187613 0.17715588 -0.039363515 0.113168895 -0.16922177 -0.039790925 -0.22021419
0.018276488 0.68035996 0.21421024 0.12175523 0.17616335 0.14390312 -0.23804525 0.008396439
0.056828998 -0.11426482 0.10175023 0.21697965 0.15865512 -0.022313291 0.53333557 0.07474461
0.07949196 0.093843564 -0.008125408 0.24807833 0.13915485 0.50245947 -0.62098324 0.14710385
-0.03253586 -0.21040197 -0.72689164 0.14053026 -0.5555908 -0.06302035 -0.064347535 0.10354338
0.13963503 -0.001775199 0.12557545 0.18659985 0.40524742 -0.1872608 -0.03848946 0.087899305
0.1327224 -0.17655298 0.11284912 -0.07475585 -0.04027226 0.024499219 -0.20275682 -0.002686106
0.1994454 0.12381353 0.37816703 -0.11153284 0.104181 -0.08342786 0.28168967 -0.32998574
-0.39109868 0.2145136 -0.061683606 0.18388294 -0.0476307 -0.27093726 0.17924361 -0.16386445
-0.020285841 0.14465736 0.14638434 0.22127546 -0.34270784 -0.2173379 0.20175262 0.12635024
0.15974428 -0.08859948 0.06823042 -0.21421683 0.10246722 -0.2640295 0.05184705 0.003459073
0.19641024 0.20105086 0.15539093 0.24333723 0.008273482 -0.0454695 -0.035726044 0.022749633
-0.5202602 0.18532217 0.062198006 -0.47760245 0.19794832 0.07735028 0.19956791 0.2836507
0.11867328 -0.06099786 0.24234197 0.18255089 0.26204094 -0.21326716 0.11309735 -0.1587199
-0.1398851 -0.021906106 -0.3513968 0.44260198 0.13235614 0.3308221 0.34772086 -0.2658922
0.19923778 -0.33368632 -0.1721264 0.28680986 -0.0869732 0.3083017 -0.53162175 -0.12831238
0.04711802 -0.0058832974 -0.30976087 -0.022075525 0.95686597 0.14501087 0.30754837 -0.087603934
0.016679443 0.0152369365 -0.21229142 0.06328058 -0.09330571 0.20974673 -0.33875656 -0.0063913353
-0.27711433 0.08728152 -0.8247004 0.19539474 0.55309933 -0.048722155 -0.25382832 0.1535308
0.13934281 -0.039633356 0.15057565 0.38782817 0.043594956 -0.05269262 0.22560339 -0.24868035
-0.35720807 0.0035517847 -0.34584612 0.11616234 0.028088335 0.06311748 0.0364626 0.06821146
-0.14288539 0.06481961 -0.07157051 -0.21449964 -0.0703102 0.18799481 0.00879167 0.18086271
-0.22455968 -0.11148417 0.11253139 0.24891663 0.26874945 0.06998542 -0.3471709 0.16350895
0.25211668 -0.19036405 0.055785105 -0.13385077 -0.3850972 -0.29126376 0.27771685 0.29988292
-0.41828826 -0.022116166 0.2721926 -0.05103693 0.045841847 -0.19155553 0.27328894 0.29755476
-0.28934506 0.1940586 0.045971744 0.5209153 -0.014460806 0.09352048 0.035740476 -0.048750248
0.2514097 0.22837439 0.09547768 0.6543136 -0.3032942 -0.8186474 0.13449544 0.13143153
0.16323064 0.45647606 -0.66407484 -0.087052755 0.97518635 0.114585556 0.82249457 0.010801752
0.16663039 -0.1317642 -0.095764585 0.4076926 0.39873135 -0.15545194 0.057963595 0.24993668
-0.15015745 -0.07823977 -0.051208798 -0.5891731 0.2294327 0.006356083 0.2792717 0.16912977
0.12191936 -0.009530999 -0.07640022 -0.58144206 0.2172616 0.192981 -0.20615318 -0.012170371
-0.99154824 -0.16066624 0.17867678 0.009778887 0.271699 0.043157294 0.29964462 0.14160255

fc2.bias f4 [128]
00000000: 3d46 5b3e d115 603e e35e 023e b4b3 b5bc
00000010: e380 093e d6f0 90bd 4b26 56be 536e 2c3d
00000020: 3fb4 02bc 3670 643e e57c 543e 989b f73d
00000030: d71c 583e 8a69 823e 112d 2d3e d359 e6bc
00000040: 529e 89bc a56d a13e 2cef 863e 7fe4 ee3c
00000050: b61b 40bd 5b71 1a3e 761e 2bbd 5eee 0bbd
00000060: 24c4 b93e cbcf 02bd c38b 2e3d 99fb 1ebe
00000070: 6b76 5f3e 2548 06bd d69d 453e dbae 8bbd
00000080: f8d6 9a3e 1478 093d 20a3 b13e 7a37 533a
00000090: e1eb 973e c64c 8a3e f57f 263e 83ff 483e
000000a0: e6a2 3f3e 88d6 acbc 9e3a c2bc 79b6 173d
000000b0: ec06 22bd 9092 b63d 3164 353e 095b 303e
000000c0: de9b 47bd 7894 b3bc 4c2d 33bc 9955 13be
000000d0: 5587 353e e8d2 3fbc 7fbd 473c 50f2 513e
000000e0: eda1 853e 75a9 213d 3322 5ebd 39a0 3d3e
000000f0: 0f94 88bc 5e9a 853e 7ff5 4a3e 58d9 443e
00000100: d83b 54bd 7394 1e3e 1c13 213d 5544 483e
00000110: c52b 243e c26e 183e 1329 14bd e201 41bd
00000120: 7662 283e def2 f23d 3cad 33be 23f3 203e
00000130: 1612 35bd e4b0 dd3d 1cef 493e 4869 8d3e
00000140: 146a 0ebd cc5f 083c d3e3 36bd cce2 da3d
00000150: 17bd 263e 8607 3a3e b803 513e e32a a83b
00000160: 23e8 8abc 117d 433d 0b44 3a3e 39e1 403e
00000170: 4326 ee3b 920a c6bc c666 05ba 08b1 74bd
00000180: f0cc 7a3c 1fcd 83bc 7bc2 c83c 3c77 273e
00000190: 0773 163e af4b 4a3e 6e46 3e3b d468 4a3e
000001a0: 74fe 44bd 3c4d 253d 88f8 08be e968 1ebd
000001b0: b132 7fbc 8dd4 893e 6f3d 863c 3cc3 5b3e
000001c0: 6e23 4f3e 23a0 46bb f1e0 f83d 76ba 4b3e
000001d0: b516 873e 95d5 1bbd 542a 693e f8eb 083e
000001e0: 172d 213e 4264 063e a0f7 523e 923c 533e
000001f0: 9a31 30bd 5296 5f3e 65b6 ec3d 4648 523e
0.21413513 0.21883322 0.12731509 -0.022180416 0.13428073 -0.07077186 -0.20913045 0.0420974
-0.007977544 0.2230843 0.20750768 0.12090224 0.21104752 0.25471145 0.16911723 -0.028119003
-0.016799126 0.31528965 0.2635435 0.02916169 -0.046901427 0.15082304 -0.041777097 -0.03416287
0.36282456 -0.031936448 0.042613756 -0.15525664 0.21822517 -0.032783646 0.19298491 -0.068204604
0.30242133 0.03356178 0.34694767 0.0008057278 0.2967215 0.27011698 0.16259749 0.1962872
0.18714485 -0.02109839 -0.023709591 0.037039254 -0.039557382 0.08914673 0.17714001 0.17222227
-0.04873263 -0.021921381 -0.010936093 -0.14388122 0.17727406 -0.011707999 0.0121911755 0.20502591
0.26100102 0.039468247 -0.054231834 0.18518151 -0.016672162 0.26094335 0.19820212 0.19223535
-0.051814884 0.15486316 0.039324865 0.19557317 0.16032322 0.14886001 -0.036171984 -0.047120936
0.1644381 0.118627295 -0.17546552 0.1571775 -0.0442067 0.10824755 0.19720119 0.27619386
-0.034769133 0.008323621 -0.044650864 0.10687789 0.1628307 0.18166932 0.20411575 0.0051320656
-0.016956395 0.047726694 0.18190019 0.18835916 0.0072677447 -0.024174962 -0.0005088862 -0.059739143
0.01530765 -0.01608902 0.024506798 0.16354078 0.14692317 0.19755433 0.0029033679 0.19766551
-0.048094228 0.04035686 -0.13376057 -0.03867427 -0.015576051 0.26919976 0.016386716 0.21461195
0.20228359 -0.0030307851 0.12152279 0.19895348 0.26384512 -0.038045485 0.22770053 0.13371265
0.15739857 0.13124183 0.20602274 0.20628574 -0.043016054 0.21834686 0.115582265 0.20535383

fc3.weight f4 [1, 128]
00000000: 520d 72be f7df 9cbe 9958 58be 93f1 1b3d
00000010: a16e 95be 0819 953d 3a53 823f 9a2c 163c
00000020: f579 e33b 66fb 8abe c0fe 6ebe 4b78 6fbe
00000030: 3e63 57be b55a 62be f010 63be 2b21 13c0
00000040: 4d45 8d3d 56ce 8240 653b 6dbe 49d8 843c
00000050: dd99 dfbc 131a 72be df08 653d 7c5a 423d
00000060: 86d7 713f 6c2d 173d c920 8a3d dfe1 0140
00000070: 5491 9cbe 96e7 d63c a22d 90be 02ec 473d
00000080: c1b0 84be cd1c 5c3d 777d d540 7ec7 2e3d
00000090: 6be1 7bbe 4d62 97be b359 b03f a213 96be
000000a0: 797e 5bbe 197b c93c 6f75 8c3c c766 973c
000000b0: 1d53 2a3d 127a 07c0 f870 6abe dcee 5240
000000c0: e9dd 3e3d fcc5 0bbd e909 2c3d bc9d 1040
000000d0: b436 b3be fa41 613c 4fbd 303d d5a7 babe
000000e0: 2220 47be 9c95 883e a5c6 0b3c 7ac9 85be
000000f0: 83ae a2bf 8991 77be 51b8 57be 659a 5dbe
00000100: 6b26 53bb de54 58be 9749 ae3e 40aa 26bf
00000110: a47b 6c3f 175a 7dbe 3d49 a1bf f4a8 00bc
00000120: ed59 82be 06d6 64be 4ffd 783f 614c 75be
00000130: 323d fb3c c3cf 3fbe cd28 49be f380 80be
00000140: c1bb df3c 3f7a 5f3c 3030 813c 991b 9b40
00000150: 9fc4 3fbe df02 53be dea5 8bbe a664 2e3f
00000160: 586c 1d3c 514c 023d 9963 66be 630c 5fbe
00000170: 72b5 783f b8ae 773d a924 6b3c 0349 233d
00000180: 63e8 a9bd d8b2 a03c 0f4b d3ba ffbe 88be
00000190: 9c44 95be 101d 54be c1a7 703c 559d a6be
000001a0: 252a e23c 680a 613f 69f7 48c0 8597 b73c
000001b0: bf0c 5140 50f1 80be 832d 813d e1d5 aabe
000001c0: 278a 5fbe f861 203c 71ba 7cbe 4ed1 8ebe
000001d0: bb1d d53f 77e4 9dbd 0333 8440 4099 a3be
000001e0: 82df 71be 8452 52be b769 22bf 81c9 7cbe
000001f0: 96de 91bd a1d9 c140 d737 85be 7c89 58be
-0.23637894 -0.30639622 -0.21127547 0.03807218 -0.29185966 0.07280165 1.0181649 0.009165907
0.0069420286 -0.27144927 -0.23339367 -0.23385732 -0.21033952 -0.22104914 -0.2217443 -2.2988994
0.06897984 4.0876875 -0.23167188 0.016216414 -0.027295047 -0.23642759 0.055916663 0.047449574
0.9446949 0.036908552 0.067445345 2.029411 -0.30579627 0.026233476 -0.28159815 0.04880906
-0.25916103 0.053738404 6.6715655 0.04267072 -0.24597709 -0.29567185 1.3777374 -0.29311854
-0.21434964 0.02459483 0.01714584 0.018481625 0.04158317 -2.1168256 -0.22894657 3.2958288
0.04659835 -0.03412436 0.04200164 2.2596273 -0.35002673 0.01374864 0.04314929 -0.3645617
-0.19445851 0.26676643 0.008531247 -0.26130277 -1.2709507 -0.24176611 -0.21066405 -0.21640928
-0.0032218944 -0.21126124 0.3404052 -0.6510353 0.9237616 -0.24741398 -1.2600476 -0.007852782
-0.25459233 -0.22347268 0.9726152 -0.23954917 0.030668829 -0.18731599 -0.1964447 -0.2509838
0.027311208 0.013639986 0.015770048 4.847119 -0.18727349 -0.20606564 -0.27274984 0.6812233
0.009608351 0.031811062 -0.22498931 -0.21782069 0.97151864 0.06046936 0.014352002 0.03986455
-0.082962774 0.01961653 -0.0016120392 -0.26708218 -0.29153907 -0.20714211 0.014688433 -0.3254191
0.027607987 0.87906504 -3.1401007 0.022411117 3.266403 -0.25184107 0.06307509 -0.33366302
-0.21830045 0.009788983 -0.24680497 -0.27894062 1.6649698 -0.07709592 4.131227 -0.31952858
-0.23620418 -0.2053929 -0.6344256 -0.24686243 -0.07122533 6.057816 -0.26019165 -0.21146196
