dqn/model/dqn.pt (torch, 138400 bytes, 6 tensors)

fc1.weight f4 [256, 2]
0.013739526 0.22429591 -0.48769084 -2.3461454 -0.9948614 -2.809158 -0.7729011 -1.3024758
0.49849504 0.17604345 0.032866716 -0.4380654 -0.63828427 -2.3264859 -0.13372016 0.37745363
-1.7104017 1.7603307 0.40831643 0.5357221 -1.0146552 -2.220051 0.287342 -0.28404126
1.4296664 -3.2525854 -0.2327824 6.0188923 -1.0406193 -1.5979944 -1.0221972 -2.7116055
-0.47320706 -4.0534005 -0.55611897 -1.6913928 -0.22513556 0.037272632 -0.63724923 -2.784397
-0.34893715 4.746637 -0.20706391 0.0976153 0.15491629 0.62630445 -1.0907936 -1.5274546
-0.30072656 -3.8865767 -0.3879754 5.1313787 -1.022445 -2.8991218 -1.3455422 4.839364
-0.1946283 -2.3602123 -1.0783066 -1.4355261 -0.4459708 -3.2878087 -0.10925066 -2.5481853
-0.28699052 -0.091023445 -0.111368656 0.49226004 -0.73796123 0.9127856 -1.0840052 -0.9189636
0.70959055 -2.0595953 -0.8566409 -2.3913 0.4289673 0.32051653 0.4805351 -0.22658062
0.02700885 -6.08187 -0.54017544 5.1836042 -0.17167836 -0.09458637 -0.2267594 -0.12377578
-0.9686888 -7.92029 0.035717428 -0.462856 -0.31974405 -5.044277 -0.48685434 -2.7499888
-0.2894286 -2.4995244 -0.43897963 -3.3921676 -0.3442307 -1.7519995 -0.090941295 0.52052367
-0.6237585 -2.4642253 -0.91522443 0.4386346 -1.1217813 -0.97812945 -0.38341755 -0.6551337
-0.10604216 -12.458564 0.069631875 -0.05265349 -0.4672033 4.3065667 -0.3444456 -7.206277
-0.51429003 -2.8335862 0.11694211 -0.16827287 -0.25146985 -3.0392563 -0.4775647 -2.7685916
0.581387 0.32141143 -0.44009697 3.1079857 -0.26672894 0.3474837 -0.021557093 0.17487335
-1.1936349 -2.3731124 -0.89758825 -2.684747 -0.38092706 -1.4733872 -0.14054121 -10.023286
-0.16697799 -8.521682 -1.2785077 -7.298188 -0.06675668 3.8813393 -0.15772615 6.703218
-0.7872134 -2.45857 -0.111165516 0.13025627 -0.493141 5.239141 0.08235824 0.28862953
-0.05433269 -0.5309405 -0.7068474 5.836816 0.18662775 -0.0679515 0.7265246 1.3719046
-0.06655537 1.1128905 -0.2876077 4.0212073 0.58170897 -0.46762678 -1.3819375 0.21074276
0.28454036 0.3643276 -0.23791094 7.597666 -0.7109894 -2.4029806 -1.3854374 1.3325648
-0.39071 -2.4304414 -0.9925597 -2.8302476 -0.51593703 5.2647095 -0.7916281 -2.6644347
-0.25863826 -3.4016643 0.535765 -0.57743955 -0.23542184 0.3103786 -0.28664494 -10.987402
-0.12782581 -2.738732 -1.1470947 -4.67203 0.55760115 -0.0915764 0.26993412 0.18435818
0.6515365 -0.19722456 0.05947399 0.24543661 -0.6222961 6.0236125 0.32337576 0.517054
-0.04818663 3.2699413 -0.019732893 0.2571991 -0.23367995 2.567408 0.4046591 0.56315345
-0.39844486 -6.9274793 0.10539079 -0.019159555 0.19512892 -0.58084536 0.08709866 0.61275977
0.016400456 -0.6635943 0.13974965 -0.56192577 -0.23664485 -6.066099 -1.0867621 -0.33524707
-0.4081258 -2.3116205 -0.5155775 -2.5483983 -0.38315508 -3.117903 -0.24643098 -2.0746756
0.26914227 -7.80356 -0.3126853 -7.685853 -0.1865781 0.18672699 -0.3659247 -2.6241243
00000000: c01b 613c d4ad 653e 9db2 f9be 3f27 16c0
00000010: 3daf 7ebf 3fc9 33c0 d9dc 45bf 87b7 a6bf
00000020: be3a ff3e bc44 343e 409f 063d 1c4a e0be
00000030: 9966 23bf 25e5 14c0 f0ed 08be 9a41 c13e
00000040: 71ee dabf 8452 e13f da0e d13e 1525 093f
00000050: 39e0 81bf 5115 0ec0 7e1e 933e db6d 91be
00000060: 4fff b63f 5c2a 50c0 825e 6ebe c49a c040
00000070: 0333 85bf 158b ccbf 5cd7 82bf f28a 2dc0
00000080: 3248 f2be 75b5 81c0 d05d 0ebf 8f7f d8bf
00000090: f089 66be 30ab 183d c422 23bf 8f33 32c0
000000a0: e4a7 b2be 73e4 9740 9008 54be 88ea c73d
000000b0: 60a2 1e3e 7d55 203f 209f 8bbf a283 c3bf
000000c0: d5f8 99be acbd 78c0 b6a4 c6be 4134 a440
000000d0: 7adf 82bf 368b 39c0 ba3a acbf 12dc 9a40
000000e0: a44c 47be b80d 17c0 f305 8abf 52bf b7bf
000000f0: 4956 e4be 756b 52c0 cfbe dfbd 7815 23c0
00000100: 6cf0 92be 806a babd 4015 e4bd 8209 fc3e
00000110: 07eb 3cbf 51ac 693f afc0 8abf 3341 6bbf
00000120: baa7 353f 69d0 03c0 d14c 5bbf 0f0b 19c0
00000130: 9aa1 db3e be1a a43e b208 f63e c004 68be
00000140: aa41 dd3c ae9e c2c0 f048 0abf 16e0 a540
00000150: 74cc 2fbe 80b6 c1bd 9e33 68be 287e fdbd
00000160: fdfb 77bf 0473 fdc0 704c 123d 76fb ecbe
00000170: 7eb5 a3be b86a a1c0 f944 f9be d1ff 2fc0
00000180: fc2f 94be 35f8 1fc0 f0c1 e0be 4619 59c0
00000190: 023f b0be 8541 e0bf 6e3f babd 0a41 053f
000001a0: a3ae 1fbf deb5 1dc0 264c 6abf b794 e03e
000001b0: 8896 8fbf b166 7abf 4e4f c4be d8b6 27bf
000001c0: a22c d9bd 4756 47c1 289b 8e3d 30ab 57bd
000001d0: 4535 efbe 65cf 8940 2c5b b0be d299 e6c0
000001e0: 83a8 03bf 7a59 35c0 587f ef3d b94f 2cbe
000001f0: a8c0 80be 2d83 42c0 5c83 f4be 9b30 31c0
00000200: c7d5 143f 0a90 a43e 6454 e1be 3de9 4640
00000210: b290 88be 62e9 b13e 8098 b0bc 0012 333e
00000220: 07c9 98bf 13e1 17c0 58c8 65bf e5d2 2bc0
00000230: df08 c3be f497 bcbf 09ea 0fbe 615f 20c1
00000240: 47fc 2abe cf58 08c1 24a6 a3bf c28a e9c0
00000250: bab7 88bd dd67 7840 f782 21be c380 d640
00000260: d186 49bf 3659 1dc0 bfaa e3bd e661 053e
00000270: fa7c fcbe 0ba7 a740 70ab a83d 40c7 933e
00000280: f48b 5ebd b7eb 07bf f4f3 34bf 32c7 ba40
00000290: 581b 3f3e 282a 8bbd 84fd 393f 929a af3f
000002a0: 2f4e 88bd 3273 8e3f 5141 93be bbad 8040
000002b0: e1ea 143f c76c efbe 54e3 b0bf f3cc 573e
000002c0: 46af 913e 2689 ba3e ed9e 73be 1420 f340
000002d0: 6703 36bf 6fca 19c0 0356 b1bf 7c91 aa3f
000002e0: 240b c8be 5a8c 1bc0 6418 7ebf c722 35c0
000002f0: 7314 04bf 8078 a840 24a8 4abf 1986 2ac0
00000300: 3c6c 84be deb4 59c0 e527 093f 14d3 13bf
00000310: 6c12 71be f2e9 9e3e 20c3 92be 66cc 2fc1
00000320: c5e4 02be 6347 2fc0 00d4 92bf 4581 95c0
00000330: f3be 0e3f 688c bbbd ce34 8a3e 64c8 3c3e
00000340: 19cb 263f 3cf5 49be 009b 733d bc53 7b3e
00000350: cc4e 1fbf 6fc1 c040 8291 a53e a75d 043f
00000360: 585f 45bd b846 5140 e0a6 a1bc 9aaf 833e
00000370: cc49 6fbe 6a50 2440 7a2f cf3e d32a 103f
00000380: f700 ccbe e9ad ddc0 20d7 d73d 80f4 9cbc
00000390: e0cf 473e 48b2 14bf c860 b23d d3dd 1c3f
000003a0: 405a 863c 51e1 29bf 881a 0f3e 5eda 0fbf
000003b0: 0753 72be 7c1d c2c0 051b 8bbf 81a5 abbe
000003c0: ddf5 d0be 97f1 13c0 e3fc 03bf f518 23c0
000003d0: e72c c4be b98b 47c0 6758 7cbe 7cc7 04c0
000003e0: 04cd 893e c3b6 f9c0 4a18 a0be 82f2 f5c0
000003f0: 540e 3fbe 5c35 3f3e 7b5a bbbe a7f1 27c0

fc1.bias f4 [256]
-0.5103436 0.370939 0.49395424 0.13904308 -0.30063996 -0.6840621 0.25549522 -0.23740435
-0.88696855 -0.36730936 -0.13524337 -0.35350433 0.62973714 0.3883578 0.09992987 -0.16728237
0.3908325 0.30345225 -0.30588976 0.5307789 0.16113403 -0.2889314 -0.28121254 0.027369207
0.13649833 0.18697742 -0.01933269 -0.231654 0.090662085 0.13593659 0.3321539 0.07595712
-0.4005176 -0.26538503 -0.4773891 -0.3865769 0.389444 0.3431669 -0.3216848 -0.58053374
0.19965205 0.2218295 -0.43000373 -0.38025922 -0.36090317 -0.193798 -0.22968051 0.27020168
0.25458387 0.34206572 0.1900263 0.15959294 0.24867736 0.29855692 0.22506514 -0.5972203
0.048291 -0.6631396 -0.24228188 0.1341316 0.33208442 0.23316382 0.11320948 0.22889155
-0.3774819 0.2914099 -0.5711084 -0.60048294 -0.15558134 0.5210678 0.4004532 0.060467098
0.07203069 -0.5095226 0.17455085 0.6299693 0.44854793 0.09102893 0.22713 -0.59426725
0.19169995 0.35569447 -0.64055824 0.4738017 0.14353931 0.17999363 -0.28974843 -0.72955894
-0.6024098 -0.11738934 0.3954243 -0.24813503 0.30097508 0.5694948 0.21224378 0.47758153
0.12304507 -0.3643487 -0.67283237 -0.258393 0.08770486 -0.013418018 -0.36913043 -0.25837004
-0.54563916 -0.62282586 0.2664491 -0.36325315 0.17783248 -0.53913474 0.50321364 -0.30654633
0.15246084 -0.6880386 -0.202721 -0.17082244 -0.5923869 -0.6660972 0.08742787 0.2649577
0.21713468 0.28390303 0.15441711 0.35910013 0.19274557 -0.122654885 -0.6161936 0.1851778
-0.10498456 0.38075054 0.21456568 -0.10557978 -0.27362013 0.20384543 -0.118044734 -0.32751623
-0.40606517 0.16172235 -0.6420308 -0.34180224 0.128747 -0.58566046 0.27002734 0.1125823
-0.66925037 0.016262162 -0.19018133 -0.3718071 0.089713186 -0.47296736 0.018450305 -0.0006925074
-0.5847575 0.24156581 -0.35694703 -0.3628051 -0.575575 0.03822432 0.22312064 -0.53640854
0.17855458 0.12258741 0.5269071 0.40673107 -0.40621755 0.3332777 -0.68276924 -0.57344127
0.27289632 -0.28452292 -0.11793694 -0.6848122 -0.07643676 0.1305827 0.24231292 -0.700064
0.20287514 -0.4250847 -0.17167902 0.29922846 0.024626393 -0.14748478 -0.28931847 0.5545249
0.49290988 0.24539684 0.18565656 0.40353277 0.08869428 0.08077615 0.31377822 -0.030404955
0.111167654 0.19188826 -0.32946023 -0.6145465 0.8179911 0.41629037 0.18167228 -0.6735053
0.15175328 -0.21643543 0.14110053 -0.32652816 -0.31287587 0.41402066 -0.23203188 0.2916253
-0.54778206 -0.32980305 -0.24595195 0.14671886 0.28716707 0.7852146 -0.4599449 0.44215137
0.1971705 0.2883077 -0.61328596 0.30405155 0.46145257 -0.5688522 -0.6581877 0.20366165
0.74561924 0.3841893 0.30429864 -0.36712772 0.079521336 0.5409531 0.35555732 -0.27394766
0.36056998 0.41397396 0.15362608 0.15000589 -0.4833061 -0.41679466 0.39870557 -0.5345677
-0.41050017 -0.34819543 -0.26684713 -0.28381655 0.38807875 -0.28083396 0.1167043 0.39564124
-0.14642613 0.4871723 -0.68328017 0.12118774 -0.28981665 0.41047198 -0.6175133 0.76841867
00000000: e1a5 02bf b7eb bd3e 92e7 fc3e 4f61 0e3e
00000010: 7bed 99be b21e 2fbf 45d0 823e 201a 73be
00000020: 5f10 63bf f90f bcbe 3d7d 0abe 85fe b4be
00000030: 7436 213f d5d6 c63e 08a8 cc3d 124c 2bbe
00000040: 331b c83e 185e 9b3e 959d 9cbe 20e1 073f
00000050: 5200 253e d1ee 93be 17fb 8fbe 6335 e03c
00000060: 38c6 0b3e 0277 3f3e 975f 9ebc b536 6dbe
00000070: 0bad b93d f632 0b3e 1310 aa3e 688f 9b3d
00000080: a510 cdbe 8ce0 87be 586c f4be 68ed c5be
00000090: 3465 c73e 92b3 af3e dfb3 a4be dc9d 14bf
000000a0: 9671 4c3e 4627 633e 7329 dcbe 56b1 c2be
000000b0: 4dc8 b8be fc72 46be 5e31 6bbe e057 8a3e
000000c0: d158 823e 3d23 af3e 4196 423e 556c 233e
000000d0: 47a5 7e3e 74dc 983e 7a77 663e 6ee3 18bf
000000e0: c9cc 453d 84c3 29bf be18 78be cb59 093e
000000f0: f806 aa3e 7fc2 6e3e 5fda e73d 8c62 6a3e
00000100: 4f45 c1be ae33 953e 2934 12bf 40b9 19bf
00000110: b750 1fbe b364 053f 3408 cd3e 59ac 773d
00000120: d484 933d 1370 02bf 75bd 323e ab45 213f
00000130: 13a8 e53e 606d ba3d c494 683e e621 18bf
00000140: fe4c 443e 961d b63e a0fb 23bf 2396 f23e
00000150: f8fb 123e 4050 383e e859 94be 60c4 3abf
00000160: 8737 1abf d369 f0bd 0e75 ca3e 1c17 7ebe
00000170: 6819 9a3e 69ca 113f 6f56 593e 9185 f43e
00000180: 0eff fb3d ea8b babe be3e 2cbf 164c 84be
00000190: 9b9e b33d 3fd7 5bbc aafe bcbe 1449 84be
000001a0: 02af 0bbf 8471 1fbf 046c 883e 51fc b9be
000001b0: b819 363e bc04 0abf 9cd2 003f a4f3 9cbe
000001c0: b21e 1c3e 4c23 30bf 1896 4fbe 14ec 2ebe
000001d0: aba6 17bf 5985 2abf 620d b33d 89a8 873e
000001e0: 8e58 5e3e bd5b 913e 851f 1e3e f9db b73e
000001f0: 185f 453e 7c32 fbbd ddbe 1dbf 409f 3d3e
00000200: 2502 d7bd bcf1 c23e 1bb7 5b3e 363a d8bd
00000210: f017 8cbe dbbc 503e 70c1 f1bd 35b0 a7be
00000220: c6e7 cfbe 8b9a 253e 215c 24bf b400 afbe
00000230: 41d6 033e d8ed 15bf 0641 8a3e 8d91 e63d
00000240: fe53 2bbf 3a38 853c e5be 42be 805d bebe
00000250: 8cbb b73d c728 f2be 1825 973c 6389 35ba
00000260: abb2 15bf 075d 773e c3c1 b6be 97c1 b9be
00000270: e258 13bf 1b91 1c3d bd79 643e 1252 09bf
00000280: 03d7 363e 1c0f fb3d 62e3 063f 0e3f d03e
00000290: bffb cfbe 60a3 aa3e f7c9 2ebf 0ccd 12bf
000002a0: 11b9 8b3e fdac 91be ec88 f1bd da4f 2fbf
000002b0: e08a 9cbd 79b7 053e e120 783e 6537 33bf
000002c0: 80be 4f3e b4a4 d9be a0cc 2fbe 7934 993e
000002d0: 4abd c93c 4006 17be 8d21 94be 58f5 0d3f
000002e0: af5e fc3e 4f49 7b3e c11c 3e3e d99b ce3e
000002f0: 59a5 b53d f76d a53d 8aa7 a03e d013 f9bc
00000300: deab e33d 5b7e 443e 03af a8be eb52 1dbf
00000310: dd67 513f 0324 d53e 4c08 3a3e d86a 2cbf
00000320: 3665 1b3e 40a1 5dbe a87c 103e b32e a7be
00000330: 4431 a0be 84fa d33e c499 6dbe e94f 953e
00000340: 723b 0cbf f2db a8be d4da 7bbe 783d 163e
00000350: 9007 933e d303 493f e67d ebbe aa61 e23e
00000360: 10e7 493e 119d 933e 4f00 1dbf a5ac 9b3e
00000370: 8343 ec3e 4ca0 11bf fd7e 28bf ae8c 503e
00000380: e7e0 3e3f 76b4 c43e 08cd 9b3e 2af8 bbbe
00000390: 15dc a23d e77b 0a3f 9c0b b63e de42 8cbe
000003a0: a19c b83e 65f4 d33e 2850 1d3e 259b 193e
000003b0: e673 f7be 1c66 d5be 2323 cc3e 6ed9 08bf
000003c0: 142d d2be ac46 b2be 30a0 88be 6750 91be
000003d0: 42b2 c63e 78c9 8fbe aa02 ef3d 7d91 ca3e
000003e0: bbf0 15be a66e f93e 73eb 2ebf 4731 f83d
000003f0: d962 94be 6229 d23e 5a15 1ebf 16b7 443f

fc2.weight f4 [128, 256]
0.010396607 -0.05819426 -0.26159278 0.41728243 -0.048999943 -0.04838203 0.036110636 -0.0025334284
0.37631902 -0.034566484 0.34093517 -0.017668232 0.24002527 0.23850366 0.55719745 0.15427077
0.07612486 -0.46972886 -0.06116662 0.003919439 0.21671854 -0.05202329 -0.056526087 0.48289874
-0.56857514 0.15095448 0.31853136 0.74815637 -0.5035442 0.42820495 -0.027452784 -1.0595623
0.015039898 0.03572946 -0.2149379 0.14466645 0.023659624 0.048664395 0.033823468 -0.05820568
-0.6189438 0.15412803 -0.05360663 -0.003976375 -0.15258518 0.055478655 0.07721768 -0.13793239
-0.027254965 -0.034365438 -0.22877344 0.15296653 -0.038459517 -0.1931121 0.42265788 -0.009394437
-0.33068985 0.033586726 0.72947025 -0.5559126 -0.046256036 0.09690321 -0.57434195 -0.16731052
0.018712841 0.14191893 -0.0108582005 -0.058579452 0.3546794 -0.2245613 0.08169564 -0.5620156
-0.13902138 -0.20310423 0.19634317 0.1826314 -0.27362514 0.057755355 0.20671512 0.018565029
0.05556029 0.08541254 0.017340414 -0.13976416 0.17659408 0.1827617 -0.05123447 0.35152662
0.016174972 0.28713855 -0.35191303 0.6621625 0.00069714704 -0.28281814 0.10198433 -0.14334168
-0.50369924 -0.009833187 0.0025726333 -0.71136063 -1.2041348 0.36469203 0.037193775 -0.007712774
-0.050192297 -0.0010352582 0.074942306 -0.03429334 0.11829256 -0.039330654 0.14647877 0.052115835
-0.60640967 0.04948505 0.0013035461 0.013445288 0.028562091 0.0537078 -0.22285607 0.2546169
-0.24120325 -0.17684929 -0.28549793 0.09712214 -0.6224755 0.39191425 -0.032506585 -0.3027858
0.47800016 -0.14314243 0.19026296 0.44266558 0.05279962 0.16194959 -0.018488243 -0.03599254
0.040212058 -0.14020471 0.018201679 -0.006600879 -0.25977844 -0.028987378 -0.7969565 0.15505019
0.016099676 0.34467128 0.27177033 0.022583157 -0.3500467 0.30991054 0.5253055 0.20391354
-0.49225238 -0.07865055 0.0062077194 0.6098619 -0.05456446 -0.15202944 -0.09512381 -0.047836185
-0.08308804 0.47930807 0.22833638 -0.22840136 0.009115376 0.036894165 -0.035014242 0.062456936
-0.09457792 -0.027114645 -0.04263371 0.014080226 0.05856084 0.49158704 0.048532493 -0.031538665
0.24549897 0.1367109 0.009212196 0.21904282 -0.5850064 0.057444505 0.4108831 -0.27436057
-0.23704083 -0.26683888 -0.15471911 0.068094015 -0.31601733 0.2005432 -0.031070147 0.41873828
0.10108072 -0.34670764 -0.019913912 -0.0019474253 0.06784894 0.01927044 0.12906532 -0.05889141
0.42704695 0.009942725 -0.0063836845 -0.0036939085 0.0236926 0.46391428 -0.045593634 0.077082425
-0.029323064 -0.059598364 0.1311325 -0.63594365 -0.09004094 0.1119638 0.4291185 -0.13634436
0.39012238 -0.30950063 0.052496605 0.042783637 -0.1813622 0.027450874 0.055031434 -0.062160436
-0.07836093 0.033909105 -0.24929853 0.17542948 -1.0501689 -0.03277862 -0.31922567 -0.20673773
-0.010724437 0.016365277 -0.36424416 0.42417803 0.11324881 -0.031569563 0.04252057 0.009432256
-0.042857684 0.042657293 0.26468328 -0.032960914 0.24781264 -0.04528214 -0.39181295 -0.031988923
0.38592806 0.11968032 -0.021543078 -0.10059818 -0.0056395754 0.18044958 0.052130446 0.14402148
00000000: 8856 2a3c 1b5d 6ebd 7def 85be 0ba6 d53e
00000010: 2ab4 48bd 3c2c 46bd bfe8 133d e007 26bb
00000020: e3ac c03e 9695 0dbd 0e8f ae3e f8bc 90bc
00000030: 2fc9 753e 4e3a 743e 7ea4 0e3f 28f9 1d3e
00000040: 5ae7 9b3d 4d80 f0be da89 7abd a36e 803b
00000050: 77eb 5d3e 6016 55bd e687 67bd 813e f73e
00000060: 248e 11bf d093 1a3e 8b16 a33e 2d87 3f3f
00000070: 46e8 00bf ae3d db3e a9e4 e0bc bd9f 87bf
00000080: e869 763c 0e59 123d ae18 5cbe 7123 143e
00000090: d4d1 c13c 5154 473d 7a8a 0a3d 1469 6ebd
000000a0: 1a73 1ebf bdd3 1d3e a092 5bbd 404c 82bb
000000b0: 4a3f 1cbe 963d 633d 4e24 9e3d 263e 0dbe
000000c0: ce45 dfbc c6c2 0cbd 9643 6abe 42a3 1c3e
000000d0: ba87 1dbd 2ebf 45be 9d66 d83e 20eb 19bc
000000e0: 2e50 a9be 3c92 093d 90be 3a3f 4a50 0ebf
000000f0: f876 3dbd 3175 c63d 1308 13bf 7353 2bbe
00000100: ac4b 993c 3253 113e 98e6 31bc 02f1 6fbd
00000110: 8a98 b53e 66f3 65be 0b50 a73d 41e0 0fbf
00000120: 9f5b 0ebe 8efa 4fbe 2f0e 493e ba03 3b3e
00000130: 9818 8cbe e190 6c3d 21ad 533e b015 983c
00000140: 3093 633d c5ec ae3d 7c0d 8e3c 561e 0fbe
00000150: 14d5 343e e225 3b3e 3cdb 51bd 4cfb b33e
00000160: 6081 843c d303 933e f22d b4be 7b83 293f
00000170: bfc0 363a 8acd 90be 29dd d03d 29c8 12be
00000180: 6ff2 00bf 601b 21bc a099 283b bb1b 36bf
00000190: 1721 9abf eab8 ba3e 8058 183d 70bb fcbb
000001a0: 7096 4dbd 80b1 87ba 5a7b 993d 2c77 0cbd
000001b0: 5f43 f23d 2e19 21bd 88fe 153e 6a77 553d
000001c0: aa3d 1bbf d6b0 4a3d c0db aa3a a049 5c3c
000001d0: 0cfb e93c b6fc 5b3d 6234 64be 255d 823e
000001e0: fcfd 76be fb17 35be c92c 92be f9e7 c63d
000001f0: 8e5a 1fbf fca8 c83e a025 05bd be06 9bbe
00000200: 70bc f43e ee93 12be 4bd4 423e 10a5 e23e
00000210: 6a44 583d 1dd6 253e a874 97bc ea6c 13bd
00000220: 66b5 243d d391 0fbe b01b 953c 304c d8bb
00000230: ae01 85be f076 edbc 5705 4cbf 7ac5 1e3e
00000240: 78e3 833c c178 b03e 7b25 8b3e 5000 b93c
00000250: 5239 b3be 98ac 9e3e 6c7a 063f b6ce 503e
00000260: 8108 fcbe 8a13 a1bd 206a cb3b e91f 1c3f
00000270: fc7e 5fbd 9bad 1bbe 46d0 c2bd e0ef 43bd
00000280: 102a aabd de67 f53e 03d1 693e 0ce2 69be
00000290: a858 153c 561e 173d 186b 0fbd d8d2 7f3d
000002a0: 12b2 c1bd 881f debc afa0 2ebd c0b0 663c
000002b0: 7edd 6f3d 4cb1 fb3e 02ca 463d b02e 01bd
000002c0: 1564 7b3e f1fd 0b3e c0ee 163c c34c 603e
000002d0: fbc2 15bf ee4a 6b3d 455f d23e fd78 8cbe
000002e0: d5ba 72be 1b9f 88be b06e 1ebe e074 8b3d
000002f0: 06cd a1be 325b 4d3e d286 febc dd64 d63e
00000300: 6903 cf3d aa83 b1be 8022 a3bc c040 ffba
00000310: 63f4 8a3d 0bdd 9d3c b329 043e 1e38 71bd
00000320: e6a5 da3e d0e6 223c 3a2e d1bb 8015 72bb
00000330: fc16 c23c 2c86 ed3e 64c0 3abd 64dd 9d3d
00000340: ec36 f0bc 6a1d 74bd 9947 063e 34cd 22bf
00000350: 6267 b8bd 474d e53d 6cb5 db3e db9d 0bbe
00000360: 1fbe c73e de76 9ebe ae06 573d e53d 2f3d
00000370: 03b7 39be a8e0 e03c a468 613d f19b 7ebd
00000380: b27b a0bd 46e4 0a3d 1d48 7fbe c9a3 333e
00000390: ef6b 86bf e042 06bd 8c71 a3be 0eb3 53be
000003a0: 8db5 2fbc 7910 863c 367e babe dd2d d93e
000003b0: feee e73d 164f 01bd 0d2a 2e3d c089 1a3c
000003c0: 8a8b 2fbd 6ab9 2e3d 9184 873e 0602 07bd
000003d0: 99c2 7d3e c479 39bd b59b c8be d106 03bd
000003e0: 5d98 c53e f51a f53d 1c7b b0bc 6b06 cebd
000003f0: 30cc b8bb c6c7 383e bc86 553d 5e7a 133e

fc2.bias f4 [128]
0.10765692 -0.09486173 -0.12850307 -0.0032345494 -0.043587267 0.073046505 0.03472016 0.17942075
-0.07646566 -0.21267666 -0.23143774 -0.023299405 -0.051951215 0.098727755 -0.039911054 0.096602805
-0.0005586017 0.1741255 -0.110556595 -0.056718864 -0.02739932 -0.064276546 -0.24465066 -0.063220754
-0.059544176 -0.13084625 -0.03879587 0.025253342 -0.18270999 0.044210073 -0.19063081 -0.0802115
0.03743306 -0.03231341 -0.09407037 -0.053475384 -0.1128769 0.009618108 0.007881771 0.033358708
-0.11829965 0.10606169 -0.11210704 0.28209755 -0.0011309164 -0.01710385 -0.037283372 0.020411983
-0.026187092 -0.04417833 0.11452589 -0.060476862 -0.04549963 -0.037084494 -0.058331802 -0.14870067
-0.011119059 0.105623655 -0.19515741 -0.022111058 -0.035972435 -0.13070491 -0.23687203 -0.018417247
-0.025461178 -0.032010518 -0.10892075 0.0059714406 0.099569924 -0.0108992215 0.008876905 -0.09924871
-0.03444814 -0.01582885 -0.099892564 0.011913898 -0.042907786 0.037239082 -0.032864958 -0.0017137192
-0.028510371 -0.069508515 0.26532197 -0.15250894 -0.14326921 0.038065758 -0.011923391 0.20273659
0.016935611 -0.052741483 -0.03376532 0.082256205 -0.07459464 -0.051365234 -0.0055924314 -0.00043761797
-0.045513142 0.029026859 -0.0029065078 -0.06512386 0.048602466 -0.11065768 -0.06180412 0.3697082
0.09185155 -0.08951111 -0.030072704 0.03670329 -0.0026170216 -0.020436633 0.056822136 -0.14335008
-0.04065258 0.098378934 -0.05078826 0.042636216 -0.09395873 -0.13987641 -0.052171104 -0.028348694
-0.0299612 -0.009502798 -0.005958631 0.024940982 0.009416129 0.12821515 0.026871108 -0.058252115
00000000: 3b7b dc3d de46 c2bd 4f96 03be bcfa 53bb
00000010: 9088 32bd 6899 953d ba36 0e3d 13ba 373e
00000020: 079a 9cbd e9c7 59be 04fe 6cbe 65de bebc
00000030: ccca 54bd c731 ca3d c679 23bd b1d7 c53d
00000040: 206f 12ba f44d 323e 7f6b e2bd 0a52 68bd
00000050: 8a74 e0bc 6ca3 83bd b485 7abe e279 81bd
00000060: 98e4 73bd 8ffc 05be 6be8 1ebd 19e0 ce3c
00000070: 5418 3bbe 9f15 353d b934 43be ed45 a4bd
00000080: 6953 193d 115b 04bd f7a7 c0bd 0109 5bbd
00000090: 012c e7bd 4595 1d3c 8b22 013c 24a3 083d
000000a0: 1647 f2bd df36 d93d 6098 e5bd 176f 903e
000000b0: 423b 94ba 601d 8cbc 73b6 18bd 0837 a73c
000000c0: 5086 d6bc 56f4 34bd 8d8c ea3d 96b6 77bd
000000d0: d25d 3abd e9e5 17bd 54ed 6ebd fd44 18be
000000e0: b72c 36bc 3751 d83d 58d7 47be 4022 b5bc
000000f0: d557 13bd 82d7 05be 958e 72be c4df 96bc
00000100: f693 d0bc 761d 03bd d811 dfbd 13ac c33b
00000110: 51eb cb3d a692 32bc 7070 113c e842 cbbd
00000120: 7e19 0dbd 81ab 81bc 7994 ccbd 8332 433c
00000130: 13c0 2fbd 0288 183d 689d 06bd e09e e0ba
00000140: 958e e9bc 7b5a 8ebd 48d8 873e 4e2b 1cbe
00000150: 2ab5 12be d7ea 1b3d 545a 43bc 2e9a 4f3e
00000160: 8dbc 8a3c 7407 58bd 814d 0abd f175 a83d
00000170: 13c5 98bd 5a64 52bd b740 b7bb 1770 e5b9
00000180: fd6b 3abd bcc9 ed3c 1c7b 3ebb a95f 85bd
00000190: 6113 473d 7ea0 e2bd 5126 7dbd 654a bd3e
000001a0: aa1c bc3d 9a51 b7bd 085b f6bc 3056 163d
000001b0: 5682 2bbb ba6a a7bc 54be 683d 5dca 12be
000001c0: 5283 26bd e57a c93d 5a07 50bd 50a3 2e3d
000001d0: 6f6d c0bd c33b 0fbe 5eb1 55bd 853b e8bc
000001e0: 3171 f5bc a0b1 1bbc 9f40 c3bb 0851 cc3c
000001f0: 1c46 1a3c d54a 033e cc20 dc3c c599 6ebd

fc3.weight f4 [3, 128]
-1.5366917 -5.1572657 -3.0514758 -0.0052647516 0.028173558 -1.1725653 -1.1775753 -2.0054572
-0.42691535 -3.7278504 -7.2960405 -1.4897842 -0.04050391 1.112098 -0.036274455 -0.76796305
0.022371422 -5.1619515 -1.1888559 0.031152263 -0.030069964 0.07343156 0.58091336 -0.06893368
1.190177 -0.28899163 1.2305115 0.02359637 -3.0881536 3.5658467 -1.5699553 -1.6633956
-1.5928879 -0.09433323 1.0996685 -0.8246267 -0.2359944 -0.70268196 -1.2551575 -0.72024584
-0.39268982 -0.6052979 -2.5976048 1.4708315 -0.3278865 0.038379945 -1.5127187 0.029574178
-0.052123733 0.03575076 -0.5732938 0.067655295 0.07117888 -0.033386998 0.08716444 -0.1318611
-1.0583973 -1.5664214 1.1828854 -0.021239134 -0.7079576 -1.1378716 -1.8298403 -1.1985695
-0.048216574 0.08369764 1.1036211 0.02632235 -0.53577787 0.05149596 0.04797446 -2.013166
0.06602765 -0.048609268 -1.2412925 0.052642424 -0.038964204 -1.1782383 -0.07920635 -0.051655605
0.07492323 -0.024620004 -1.2513597 -7.812254 -2.6194742 -0.05216526 0.07247751 2.2938788
0.02962661 0.5660483 0.049382858 -0.5678916 -0.38834316 0.05618436 0.025945546 0.07722096
-0.016440772 1.245616 0.06213375 -1.5031221 -0.087269105 -1.570087 -0.7565047 -1.1180254
1.1480993 -1.4007735 0.005168629 -0.7048233 0.3306762 0.015494242 -0.036590103 0.688104
-0.0842608 -0.55383337 0.00042122602 -0.032193944 -0.7223142 3.4962084 0.8327086 -0.0079681445
-0.024182547 -0.025888532 4.994124e-05 0.07764552 -0.03707896 1.1276708 0.76592165 -0.032379434
-0.63169605 -1.7868023 -1.7947177 0.052655958 -0.043039538 -1.3466926 -0.8175497 -1.792739
-0.97539437 -1.5126307 -3.9758096 -1.3154551 -0.07098299 1.3506153 0.018652149 -1.0237627
-0.076349184 -3.5014648 -1.2568961 0.08319167 -0.08739347 0.011989002 -0.8016781 0.06947952
1.0502365 -0.48019692 0.3308441 -0.00015757664 -1.2612113 1.6071528 -3.1025121 -2.8031445
-3.0849102 0.46934915 3.1482894 -0.8476669 -0.62176025 -0.5593622 -1.9163157 -1.6377767
-1.4727212 -0.4987858 -1.9726859 -1.1456057 0.50806975 0.08694551 -1.5508548 -0.012435816
0.048763804 0.02141165 -0.7110098 -0.008349488 -0.025353517 -0.086016804 -0.068619356 -3.2790544
-1.2328886 -1.2571894 -0.4112876 0.026990738 -0.80257314 -1.2078153 -5.9013834 -0.45404732
0.06810292 0.054574735 -0.031244496 -0.06400785 -0.64591175 -0.06549283 -0.02055686 -2.5967956
0.009142549 -0.026278054 -1.905491 0.053363383 0.025844263 0.17410807 0.06942656 0.06990402
-0.030619591 -0.0202257 -0.51408607 -5.328307 -2.1114872 -0.056329485 0.048194055 0.43928546
-0.025415016 -1.9289314 0.01802013 -0.6543391 -1.0820992 -0.016149426 0.043605514 -0.07289541
0.08128961 1.4984751 0.051033765 -1.164541 -0.07236731 -1.7967712 -1.6261094 -0.52787626
-0.6214489 -1.4093441 0.04062231 -1.4279833 -0.5434406 -0.046674345 -0.027314546 -0.7016532
0.030669449 -0.6110444 -0.053067412 0.006867431 -0.77031153 -1.1724907 -1.206213 0.07256367
-0.040485222 -0.05762908 -0.013654239 -0.029722108 0.07123897 0.83812183 -1.4615748 -0.04474633
00000000: 50b2 c4bf 5208 a5c0 614b 43c0 f083 acbb
00000010: 3ccc e63c 9f16 96bf caba 96bf 6959 00c0
00000020: a694 dabe 1a95 6ec0 2a79 e9c0 40b1 bebf
00000030: 6ee7 25bd 3a59 8e3f 8694 14bd 3a99 44bf
00000040: 4644 b73c b52e a5c0 6e2c 98bf 0833 ff3c
00000050: 4955 f6bc 4963 963d bdb6 143f 1a2d 8dbd
00000060: b857 983f b6f6 93be 6781 9d3f 2d4d c13c
00000070: 4fa4 45c0 d536 6440 4cf4 c8bf 26ea d4bf
00000080: c0e3 cbbf c831 c1bd f0c1 8c3f bc1a 53bf
00000090: 84a8 71be f7e2 33bf 00a9 a0bf 0862 38bf
000000a0: a40e c9be cef4 1abf 283f 26c0 3544 bc3f
000000b0: bde0 a7be 4a34 1d3d c4a0 c1bf 8c45 f23c
000000c0: b27f 55bd 646f 123d 62c3 12bf dc8e 8a3d
000000d0: 3cc6 913d cec0 08bd 4583 b23d 9906 07be
000000e0: 9079 87bf 7f80 c8bf ca68 973f b1fd adbc
000000f0: b63c 35bf c7a5 91bf 3538 eabf ba6a 99bf
00000100: be7e 45bd ab69 ab3d 7543 8d3f f8a1 d73c
00000110: bd28 09bf 6eed 523d de80 443d b6d7 00c0
00000120: 8139 873d 831a 47bd ace2 9ebf 959f 573d
00000130: ee98 1fbd 83d0 96bf f036 a2bd d494 53bd
00000140: 5a71 993d e4af c9bc 8e2c a0bf fcfd f9c0
00000150: 77a5 27c0 3dab 55bd 176f 943d e9ce 1240
00000160: 81b3 f23c 8be8 103f ae45 4a3d 5861 11bf
00000170: ead4 c6be 9221 663d c18b d43c 0626 9e3d
00000180: ccae 86bc 5870 9f3f f67f 7e3d 4e66 c0bf
00000190: 25ba b2bd 9cf8 c8bf 4baa 41bf 751b 8fbf
000001a0: ebf4 923f 8c4c b3bf 9a5d a93b 4d6f 34bf
000001b0: 644e a93e 90db 7d3c 81df 15bd 9527 303f
000001c0: ed90 acbd 06c8 0dbf 00d8 dc39 ccdd 03bd
000001d0: 95e9 38bf e1c1 5f40 642c 553f d28c 02bc
000001e0: 7a1a c6bc 3014 d4bc 0078 5138 9d04 9f3d
000001f0: 1ce0 17bd 8457 903f 7113 443f 4ca0 04bd
00000200: d5b6 21bf f0b5 e4bf 4fb9 e5bf c6ad 573d
00000210: 3a4a 30bd 6c60 acbf f04a 51bf 7978 e5bf
00000220: 72b3 79bf e29d c1bf aa73 7ec0 d560 a8bf
00000230: 885f 91bd f6e0 ac3f 64cc 983c a80a 83bf
00000240: f65c 9cbd 0018 60c0 f9e1 a0bf 6560 aa3d
00000250: 59fb b2bd 856d 443c c73a 4dbf 474b 8e3d
00000260: 266e 863f 5fdc f5be 6664 a93e 283b 25b9
00000270: 5f6f a1bf 2fb7 cd3f 8f8f 46c0 b866 33c0
00000280: 2b6f 45c0 884e f03e 937d 4940 b300 59bf
00000290: ae2b 1fbf 5c32 0fbf d549 f5bf aba2 d1bf
000002a0: 2182 bcbf da60 ffbe f980 fcbf 35a3 92bf
000002b0: dc10 023f 7d10 b23d 6982 c6bf 98bf 4bbc
000002c0: 8ebc 473d 7c67 af3c bd04 36bf 4acc 08bc
000002d0: 2eb2 cfbc 9429 b0bd 4e88 8cbd 07dc 51c0
000002e0: 4bcf 9dbf 95eb a0bf 4a94 d2be ae1b dd3c
000002f0: 6f75 4dbf b199 9abf 22d8 bcc0 e478 e8be
00000300: 8b79 8b3d c289 5f3d 75f4 ffbc 8c16 83bd
00000310: 795a 25bf 1b21 86bd dc66 a8bc e631 26c0
00000320: a1ca 153c 1345 d7bc 21e7 f3bf 9093 5a3d
00000330: 59b7 d33c 6349 323e 832f 8e3d d729 8f3d
00000340: f0d5 fabc 5eb0 a5bc 259b 03bf 7e81 aac0
00000350: 9b22 07c0 bfb9 66bd 2167 453d 06ea e03e
00000360: 2733 d0bc 39e7 f6bf f49e 933c c482 27bf
00000370: 3a82 8abf cd4b 84bc b29b 323d 304a 95bd
00000380: 2b7b a63d 08ce bf3f c808 513d ae0f 95bf
00000390: 5035 94bd 99fc e5bf 5a24 d0bf e622 07bf
000003a0: 4617 1fbf 6365 b4bf 9463 263d 28c8 b6bf
000003b0: ec1e 0bbf 992d 3fbd c1c2 dfbc 8b9f 33bf
000003c0: 7f3e fb3c 686d 1cbf 375d 59bd 3008 e13b
000003d0: 2333 45bf 2d14 96bf 3065 9abf 439c 943d
000003e0: d5d3 25bd 780c 6cbd 07b6 5fbc c77b f3bc
000003f0: bde5 913d 278f 563f e214 bbbf ed47 37bd

fc3.bias f4 [3]
-0.25253165 -0.2588268 0.12420486
00000000: d44b 81be f284 84be 1e5f fe3d
