dqn/model/dqn.pt (torch, 138400 bytes, 6 tensors)

fc1.weight f4 [256, 2]
000000 f0 06 67 bf 6f 5d c1 c0 35 c5 87 bf 07 3b 40 c0
       -0.9024496 -6.0426555 -1.0607058 -3.0036027
000010 b6 ef 37 bf 4e 05 ae be 7a b0 90 be 63 05 4a c1
       -0.71850145 -0.33988422 -0.2825964 -12.626315
000020 41 ae f9 3d 56 a0 ca be 42 8f 2c bf e5 28 42 c0
       0.121914394 -0.39575452 -0.67406094 -3.033746
000030 72 ba 93 3f 59 98 2a bf 62 b9 8f 3e 93 1a a6 3b
       1.1541274 -0.66638714 0.28071123 0.005069086
000040 82 c9 ef 3e 98 67 e5 3e 53 4d 5d bf 32 ad 24 c0
       0.46833426 0.44805598 -0.8644611 -2.573071
000050 20 00 ae be db 56 01 c0 f1 0d b2 bf a1 13 16 c1
       -0.3398447 -2.0209262 -1.3910505 -9.379792
000060 d7 45 19 bf 5c f3 d1 40 ed bf eb be 70 f5 ed 3e
       -0.5987219 6.560957 -0.46044865 0.46476316
000070 28 dc 11 bf 51 b6 de c0 8e af 8c 3e d2 65 81 3e
       -0.56976557 -6.9597554 0.27477688 0.25272995
000080 ed c2 2a 3f 42 f9 78 40 a4 64 f2 be fd 93 95 bf
       0.66703683 3.8902135 -0.47342408 -1.1685787
000090 c6 47 47 be 11 40 f4 bf 9c 8a 40 3e 7f 05 a6 40
       -0.19460973 -1.9082052 0.18802875 5.188171
0000a0 e5 d7 95 bf 8f 97 50 3f 15 f4 2b bf 46 4d 76 c0
       -1.1706511 0.8148126 -0.67169315 -3.8484664
0000b0 72 69 14 be 3d d9 83 c0 b3 79 89 bf f8 a3 aa c0
       -0.14493349 -4.1202683 -1.0740265 -5.3325157
0000c0 1c 8b 1d bf 5c db 9f c0 b1 53 da 3d d7 7c 37 c0
       -0.6154039 -4.9955273 0.10660494 -2.8669946
0000d0 08 3c 84 3d 1e a0 86 3d ee 98 d2 3f fa 1a 1b c1
       0.064567626 0.06573509 1.645292 -9.694086
0000e0 a4 b4 7f be ca ea 73 c0 6c ee 2b 3e 57 e9 52 c0
       -0.24971253 -3.8112054 0.1679017 -3.295492
0000f0 5d aa b0 3e c1 de ac bf be d6 b5 bf af 3b ec 3f
       0.34504977 -1.3505479 -1.4206159 1.8455714
000100 ba 27 41 bf cc 73 81 c0 7c a7 76 bd 75 9c e8 be
       -0.7545124 -4.0453854 -0.06021832 -0.45431867
000110 ff cc 38 bf 6a ef 6e c0 63 c9 47 3d 6b 00 ec be
       -0.721878 -3.7333627 0.04877604 -0.4609407
000120 10 4a a6 be fc 48 42 c0 36 0d 2e be a5 a2 6a c0
       -0.3247838 -3.0357046 -0.16997227 -3.666177
000130 90 65 a3 bd a7 8c da be b6 90 e4 3e 72 ba 2e be
       -0.07978356 -0.42685434 0.44641656 -0.1706331
000140 60 a1 15 bf e4 5f ea 40 26 7f 31 bf f3 75 53 c0
       -0.58449364 7.3242054 -0.6933464 -3.304074
000150 9e ff 1d 3f 0f e6 8c be d3 17 5a 3d 11 21 2b bd
       0.61718166 -0.2751927 0.053245377 -0.04177958
000160 18 54 81 bf 50 9b 2e 40 af 41 8b 3e e4 ad c0 be
       -1.0103788 2.7282295 0.2719855 -0.37632668
000170 70 52 49 bf 95 69 87 c0 5c 03 97 be 05 90 f6 3d
       -0.78641415 -4.2316384 -0.2949475 0.12039188
000180 62 3f 33 3e 48 c5 b5 be f4 32 94 be 76 ef 29 3e
       0.17504647 -0.35502076 -0.28945124 0.16595253
000190 79 b0 59 bf 3d 47 20 40 d6 ae 0c 3f 64 3e 2d c0
       -0.850349 2.504348 0.5495428 -2.706933
0001a0 37 c2 02 3e 4b 94 2f bf 53 76 05 be 00 4f 99 40
       0.127694 -0.6858565 -0.13033418 4.7908936
0001b0 71 d8 c2 be 4e e7 97 bf 1e c9 d4 be 81 bc de c0
       -0.38055757 -1.1867464 -0.4155969 -6.9605107
0001c0 bd ae bb be 1e 76 79 be e6 a3 92 bf 44 cb 04 40
       -0.36656752 -0.24361464 -1.1456268 2.0749063
0001d0 b9 89 d9 be d1 8a 8e c0 9d dc 46 3f 76 67 8a c0
       -0.42487887 -4.4544454 0.7768038 -4.3251295
0001e0 54 77 5e 3e 7e ab 07 3f f2 a5 27 3f cc 30 a1 3e
       0.21725208 0.5299605 0.6548759 0.31482542
0001f0 00 db 27 be 65 95 c0 40 fb aa c7 3e 19 e7 10 3f
       -0.16392136 6.0182366 0.38997635 0.5660263
000200 0e c7 a6 be c1 e2 e0 bf ef fd 7e be 55 a5 a7 40
       -0.32573742 -1.75692 -0.24901555 5.238932
000210 af 61 39 bf 1b 26 4b 40 45 aa 1e be e1 8d 46 c0
       -0.7241468 3.1742008 -0.1549464 -3.1024096
000220 99 64 96 be 28 48 52 c0 5c 76 0e bf 1e ea 3b c0
       -0.29373625 -3.285654 -0.5564935 -2.9361644
000230 40 ff 34 bf 73 21 82 be df 53 7b bf 3a c5 57 c0
       -0.7070198 -0.25416145 -0.9817485 -3.3714128
000240 8c 47 ca bd 6b 27 2c c0 de dc 71 bd 35 bb 99 40
       -0.09876928 -2.689906 -0.059048526 4.8041024
000250 d7 9d 26 bf 02 81 b5 bf be 4c a7 be 86 c8 fb c0
       -0.65084594 -1.4179995 -0.32675737 -7.868228
000260 48 93 a2 3d 52 67 82 40 9e 2c 30 3e 11 30 1d 3f
       0.07938248 4.0751123 0.1720452 0.6140147
000270 5f 0e 83 bf fe 32 56 c0 af dd 0c bf 36 7a 9b 3e
       -1.0238761 -3.3468623 -0.5502576 0.30366677
000280 d0 db 3f 3d 95 bc 38 3e 60 7b 0b 3e 66 04 ab 3f
       0.04684049 0.18040688 0.13621283 1.3360717
000290 09 12 0e 3e 79 8f 10 3f 41 94 ff be 01 21 49 c0
       0.13874067 0.5646892 -0.49917796 -3.1426394
0002a0 15 00 4f bd b8 d2 28 be 4b 72 7f 3e 34 99 0a 3e
       -0.050537188 -0.16486633 0.24945943 0.13535005
0002b0 bd d2 90 be 94 10 60 c0 41 c0 de be 14 2b be 40
       -0.2828578 -3.5010118 -0.43506053 5.9427586
0002c0 ae e8 13 bf 2c 6b 30 40 df 40 86 3e 7d 9e 05 be
       -0.57776916 2.7565413 0.26221368 -0.1304874
0002d0 d9 86 0d 3e d9 0a c4 be 82 80 f7 be 72 ce 9c c1
       0.13820972 -0.38289526 -0.4834023 -19.600803
0002e0 a5 d5 92 bf 8c 80 c4 c0 67 32 5a bf ea f0 69 c0
       -1.1471449 -6.1406918 -0.8523316 -3.6553292
0002f0 d4 2d 0c bf 69 55 e1 40 9f 45 d8 bd 38 28 17 3f
       -0.5475743 7.041676 -0.10560154 0.59045744
000300 38 63 82 be bd 27 bc 3e 21 a0 15 3e 55 ce 80 3d
       -0.25466323 0.36749068 0.14611866 0.06289355
000310 f5 8c 0f be 31 96 4c c0 61 fd a8 3e e7 df 8e 40
       -0.14018615 -3.196667 0.33005813 4.464832
000320 eb 05 37 3f 49 e8 19 40 b5 5a d3 be fe 08 ea 3e
       0.71493405 2.4048026 -0.4128014 0.45709985
000330 49 37 01 bf 18 0f b2 c0 b1 d9 a4 3e 05 c6 9d c1
       -0.50474983 -5.5643425 0.32197335 -19.72169
000340 3c 7f a6 3e 63 86 f1 bd ee 81 f4 be f5 61 78 3d
       0.32518947 -0.1179321 -0.47755378 0.060640294
000350 87 fa 69 3f 8b 85 ed c0 46 8c 59 bf cd ac 33 c0
       0.913979 -7.4225516 -0.84979665 -2.807422
000360 b9 8e 18 bf f9 bb d6 3f e4 75 76 bf 4c 06 72 c0
       -0.5959278 1.6776115 -0.96273637 -3.7816343
000370 8c dd 3d bf dd c8 63 c0 52 4c 54 bd 69 7b 5c c0
       -0.7416618 -3.5591347 -0.051830597 -3.4450324
000380 59 17 57 bf 35 82 af c0 44 68 5d bf 3f 14 4e 40
       -0.8402 -5.4846444 -0.8648722 3.2199857
000390 c3 db b7 be 87 e7 9a c0 5e 04 32 3e e0 d3 f7 be
       -0.35909852 -4.8407626 0.17384478 -0.48403835
0003a0 bd ff 6e be 3a ca e4 3e 70 dd 82 3f 33 82 96 c1
       -0.23339744 0.44685537 1.0223827 -18.813574
0003b0 27 1f 3a bf 24 a9 79 c0 76 a6 44 bf a9 c9 a9 40
       -0.72703785 -3.9009485 -0.768165 5.3058667
0003c0 79 93 03 3f ab 56 d0 3e d3 1d 04 be ae 1f 04 3f
       0.513969 0.40691122 -0.12902002 0.5161084
0003d0 6c 9c 41 bf 9d 31 12 c1 d7 18 86 bd d6 35 d3 be
       -0.75629306 -9.137113 -0.065477066 -0.4125201
0003e0 df b5 66 bc f1 a5 6e be a1 81 28 3f 39 de 08 3f
       -0.014081447 -0.23305489 0.658228 0.53464085
0003f0 ef 78 5f bf 72 20 7e c0 0a 79 91 be 57 27 62 c0
       -0.87293905 -3.9707303 -0.28412658 -3.533651

fc1.bias f4 [256]
000000 f8 6c a2 bb 4e 78 9f 3e a6 99 cd be ed 93 1c 3e
       -0.0049568377 0.31146473 -0.40156287 0.15290804
000010 4e 90 af be b0 43 56 be f6 d5 e2 3e 6a 7e 16 bf
       -0.34289783 -0.20924258 0.44303864 -0.5878664
000020 c2 10 05 bf 5b 70 44 3d 6d ca 50 be 4a fc c3 be
       -0.51978695 0.047958713 -0.2038972 -0.3827842
000030 a7 73 7b 3e 33 2b 31 bf b2 f4 64 3e 32 37 87 be
       0.24555837 -0.6920654 0.22358969 -0.26409298
000040 ac a6 c2 3e 34 e1 9a 3c c6 2c 02 3f 92 59 72 3e
       0.38017786 0.018906213 0.5084957 0.23666981
000050 ef 8c 88 3e 5d 7a fb 3e e8 62 0f 3f 42 e5 52 be
       0.26670024 0.49116793 0.56010294 -0.20595267
000060 93 c1 dd 3d 1a 71 49 bd 5b de e7 be 71 15 89 3f
       0.10827937 -0.049180128 -0.4528683 1.0709668
000070 dd a8 ff 3d 84 1b 7e 3e fd 6e bb 3e 69 b9 84 3e
       0.1248338 0.24815184 0.36608115 0.25922707
000080 89 b4 a5 3e e3 df b1 be 78 c5 5a bd 7c 48 e8 be
       0.323643 -0.34741125 -0.053410977 -0.453678
000090 00 58 90 3e 27 38 e3 3d dc cc bc be fd 84 cf be
       0.2819214 0.110946946 -0.36875045 -0.4053115
0000a0 b6 b4 9b 3e ff a6 93 3e c8 2e 24 bf 7e 69 b7 be
       0.3041131 0.28838345 -0.6413388 -0.35822672
0000b0 de 91 49 be 74 45 d8 be 68 63 b2 3e 09 8e 2c bf
       -0.1968455 -0.4224049 0.34841466 -0.6740423
0000c0 10 f8 b5 bd e9 dd 10 bf 41 84 9c be 40 00 10 3f
       -0.08885205 -0.5658861 -0.30569652 0.5625038
0000d0 b0 ba f6 be 38 b3 8e 3e ad 89 08 bf d8 2c 5d 3e
       -0.48189306 0.27871108 -0.53335077 0.21599138
0000e0 fc b6 ec be a3 74 26 bf c7 7a 64 3e 67 0d d9 3e
       -0.46233356 -0.65021724 0.22312461 0.42393038
0000f0 83 d9 55 be bf c1 0f bf 0b d3 a4 3e e5 fa b8 be
       -0.20883755 -0.5615501 0.32192263 -0.36128917
000100 86 b9 2f 3d 1e 08 e0 3e bb 4b ad be bb a0 b6 3d
       0.04290154 0.43756193 -0.3384684 0.08917376
000110 0f 51 18 3e 45 68 da 3e 96 71 db bd 19 d8 db 3e
       0.14874671 0.42657676 -0.10715024 0.42938307
000120 61 64 a9 3d 60 5f 42 3c 80 c2 fb bd 38 33 06 3e
       0.08271099 0.0118635595 -0.12292957 0.13105476
000130 15 d9 e9 3e 17 6a bb be 85 4a df 3e 63 47 85 be
       0.45673433 -0.36604378 0.4361154 -0.26031026
000140 ad e7 1a be 86 be 17 3f 1f a9 d0 be 99 77 42 3e
       -0.1512744 0.5927509 -0.4075403 0.18990935
000150 49 90 ed be c5 20 07 bf 72 ac 29 be a9 4d bf 3e
       -0.46399143 -0.5278438 -0.16569689 0.37363937
000160 4c 8e 4b be 5d c1 bb be 60 ef 14 be 99 b3 6f 3e
       -0.198785 -0.36670962 -0.1454444 0.23408355
000170 bb 10 ea 3b cf 44 b5 3e 22 94 90 3e 56 14 2d bf
       0.0071431077 0.3540406 0.28238016 -0.67609155
000180 52 4c 06 bf 0b f7 79 be 78 8d c8 3d 8e 06 dd 3e
       -0.52460206 -0.24410646 0.09792608 0.43169063
000190 17 36 e9 3e 99 1d fe be 25 e0 8b 3d 06 db 18 bd
       0.4554908 -0.49631956 0.068298616 -0.037318252
0001a0 63 c0 06 bf 2d 53 18 bf 57 9a d6 3e 6c 7f ee 3d
       -0.5263731 -0.59501916 0.41914627 0.116453975
0001b0 a5 01 7e be 58 56 c9 3e ab 94 ec bd 7a 1e 05 3e
       -0.24805315 0.39323688 -0.11551794 0.12999907
0001c0 96 0a b9 3d eb 10 4b be 72 da 2c 3e 87 80 a6 be
       0.09035222 -0.19830672 0.16880205 -0.32519934
0001d0 86 4b 2c bf 5d 80 24 3f 76 4c ea bd 85 ec 71 3e
       -0.6730274 0.64258367 -0.11440365 0.23625381
0001e0 a0 98 29 bf e2 30 02 bf 92 39 f2 bd e9 42 0f bf
       -0.6624851 -0.5085584 -0.11827387 -0.5596147
0001f0 36 9a 1e 3f fe 22 e1 be 52 7a af 3e ad a0 05 3e
       0.6195406 -0.4397201 0.3427301 0.13049574
000200 71 83 8c 3f 97 03 03 bd ca 75 16 be 9a 86 fd 3d
       1.0977613 -0.031985845 -0.1469337 0.12379189
000210 e0 5e 07 3e fa 8f 7d be 8d ee 0f 3e cc 9d 10 be
       0.13219786 -0.24761954 0.14055844 -0.14122695
000220 b3 a7 51 3e 32 39 29 bf 0e 28 4a be ea 1f ef be
       0.20474128 -0.661029 -0.19741842 -0.46704036
000230 5b b2 41 3e 28 d4 19 3f 42 92 0c 3e 51 20 32 bf
       0.18915693 0.6008935 0.13727668 -0.6958056
000240 3b 7a cc be d1 c4 9d 3e d4 3c 97 3e bc 52 04 bf
       -0.39937004 0.30814222 0.29538596 -0.5168874
000250 3b 23 9e 3d e9 0b 0f bf 71 6d 2b 3f b1 fa 7c bb
       0.077215634 -0.5587755 0.6696387 -0.0038601572
000260 2e 65 2e bf 1b 16 c2 be c6 ce b9 3e b6 dc df 3e
       -0.6812314 -0.3790749 0.36290568 0.43723077
000270 11 9c de be 5e 7c 20 3e 3a ec e8 3d 19 b9 04 3e
       -0.43478444 0.15672442 0.11373182 0.12961234
000280 d7 c7 71 be 25 39 d6 be 4d dc 86 3e 32 99 cb bd
       -0.23611389 -0.41840473 0.2633995 -0.09941329
000290 bb 73 57 3c 9e bc 24 3e 29 e5 97 be 1e 89 bd 3e
       0.013150151 0.16087577 -0.29667023 0.37018675
0002a0 0b e7 f8 3d e7 5b b3 be 4e 2d 73 be 4e f2 c2 be
       0.12153443 -0.35031053 -0.23747751 -0.3807549
0002b0 43 a3 2d bf 49 a5 cd 3e 92 17 98 3e 14 80 0d bf
       -0.6782724 0.40165165 0.29705483 -0.55273557
0002c0 0c 59 25 bf 50 f9 17 bf e0 00 da 3d b2 38 d9 bd
       -0.64589 -0.59364796 0.10644698 -0.10606517
0002d0 8b 21 27 bf ac 44 cf 3e 68 fb d3 bd 44 2b e1 3d
       -0.6528556 0.4048208 -0.10350686 0.109945804
0002e0 31 3f 7d 3e a6 65 c4 3d 33 4a d9 3d f6 8e 8d 3e
       0.24731137 0.095897004 0.106098555 0.27648133
0002f0 bc a5 1d 3e a2 b9 5f 3e 86 49 94 be 4e b7 88 3d
       0.15395254 0.21848157 -0.28962344 0.066755876
000300 3b 31 21 bf 26 e0 08 bf e6 92 0a 3e 40 89 15 3e
       -0.62965745 -0.53467023 0.135326 0.14603138
000310 11 f0 06 be 6a 49 7a 3e 5d d8 9e 3e 1a 0f 9b be
       -0.13177516 0.24442068 0.31024447 -0.3028496
000320 98 31 1e be 1a 1e 18 3e cf 1e 29 3e 44 a3 f6 be
       -0.15448606 0.14855233 0.16515659 -0.48171437
000330 6d 5f 86 3e 33 b5 2a bf 36 15 f1 bc 7b 5e e1 3e
       0.2624468 -0.6668274 -0.02942906 0.44017395
000340 bf 7f 14 bf 7c 0b 1c bf eb 80 57 3e 31 68 ef be
       -0.58007425 -0.60955024 0.21045272 -0.4675918
000350 a0 61 36 3e 55 9c 9b 3e ef 4d ee be 07 ce 09 bf
       0.17810678 0.3039271 -0.46543834 -0.5383
000360 3b 9b 0d 3e bc 7e 4a 3f 3c 62 0e 3e bf 05 05 bf
       0.13828747 0.7909963 0.13904661 -0.5196189
000370 68 4e e4 bd 21 9f a6 3d bc 05 15 be 39 67 d7 be
       -0.11147767 0.0813582 -0.14552969 -0.4207094
000380 af d3 1e be 49 07 31 3f f9 f8 de be b9 51 9c 3e
       -0.15510438 0.6915174 -0.43549326 0.305311
000390 a2 d7 81 3d a7 f2 6a 3e 08 eb 04 3e 21 d1 64 3e
       0.06339957 0.22944127 0.12980282 0.22345401
0003a0 38 0e ea 3c cc 18 d0 be a3 55 4e 3f ed 01 8a be
       0.028571233 -0.4064392 0.8059942 -0.26954594
0003b0 4f 05 f6 3d c7 86 b6 be 2b 00 1d bf 30 a7 90 be
       0.12012731 -0.35649702 -0.6132838 -0.28252554
0003c0 13 22 27 bf 65 1a 93 be 35 57 c4 be d0 89 83 bd
       -0.6528637 -0.28731075 -0.38347784 -0.0642277
0003d0 77 da 6d 3f aa a0 7d be f8 a8 d2 be c6 0b b6 3e
       0.92911476 -0.2476832 -0.41144538 0.35555857
0003e0 ac 0e 91 be 95 4d 3b 3e 62 1a 24 bf a4 56 84 3e
       -0.28331506 0.18291314 -0.64102757 0.25847352
0003f0 4a fa 8b 3e 8e 6b d4 bb 71 56 51 3e 4f 3d df 3e
       0.27339393 -0.006482548 0.20443131 0.43601462

fc2.weight f4 [128, 256]
000000 a6 d7 30 bd a0 55 01 3d c0 95 10 3c 30 c3 62 3c
       -0.04317441 0.0315758 0.008824766 0.013840482
000010 e0 84 05 3d 80 c2 68 3c 58 1e 8c bc aa 51 10 bd
       0.032597423 0.014206529 -0.017104313 -0.03523413
000020 74 84 3c bd b8 86 db 3c a6 7e 5c 3d 26 3c 59 bd
       -0.046024755 0.026797637 0.05383172 -0.053035878
000030 80 1f 1b bc 1c f3 10 bd b8 bf ea 3c f0 82 aa 3b
       -0.009467959 -0.035388097 0.028655872 0.0052035972
000040 46 98 60 bd e8 db 37 3d 08 d7 d0 bc 00 e6 05 b9
       -0.05483272 0.044887453 -0.02549316 -0.0001276955
000050 14 ef d8 bc 58 5d 9a 3c 60 29 2d bc 58 fa 80 bc
       -0.026481189 0.018843338 -0.010568947 -0.015744373
000060 d0 12 bb bb 60 d8 45 3b 7c 7c 6c 3d 1c 3d c7 bc
       -0.0057090297 0.0030188784 0.057735905 -0.024321131
000070 38 99 2d bd a8 a3 38 bd ba 6e 69 bd 3c b1 05 3d
       -0.04238245 -0.04507795 -0.056990363 0.032639727
000080 8e c6 21 bd 20 33 11 3b f0 98 b9 3b 50 9c c9 3c
       -0.039495997 0.0022155717 0.0056639835 0.024610668
000090 00 7d d5 3b 54 64 1d bd 82 df 3b bd ee 68 34 bd
       0.0065151453 -0.03842576 -0.04586745 -0.04404538
0000a0 a4 2b 9a bc 0c 40 5a bd 9e 7e 25 3d 20 e2 5e bc
       -0.018819638 -0.053283736 0.040403955 -0.013603717
0000b0 c8 e6 a7 3c 40 e2 df 3b 70 81 70 bd 00 30 1f 38
       0.020495787 0.006832391 -0.05871719 3.7953258e-05
0000c0 d0 87 4f bd ba d3 7e bd b4 02 e0 3c ac 22 9d 3c
       -0.05066663 -0.062213637 0.027345039 0.019181572
0000d0 80 b3 3f 3c 34 d9 29 bd 60 19 d2 bc 48 a6 72 3d
       0.011700511 -0.041466907 -0.025646865 0.05924061
0000e0 8c 1e 01 3d 98 71 24 3d 78 41 96 3c b8 d7 60 bd
       0.031523272 0.040147394 0.018341765 -0.054893225
0000f0 d8 da c7 3c 7e ef 10 bd 9a 77 76 3d 8c de 2c 3d
       0.024396345 -0.035384648 0.060172655 0.042204425
000100 60 27 22 bc f8 4a 11 bd 24 35 3a bd 94 17 14 bd
       -0.009897083 -0.035471886 -0.045460835 -0.0361553
000110 90 5d 9f 3c b6 77 2a 3d 7e 9b 11 bd e0 15 93 3c
       0.019453794 0.04161807 -0.03554868 0.017954767
000120 26 24 2f bd 48 04 1e bd 10 84 ed 3c 54 05 86 3c
       -0.042759083 -0.0385783 0.028993636 0.016359963
000130 fe e7 13 3d cc f5 f8 3c 7a 36 5b bd c8 4a 61 bd
       0.036109917 0.030390643 -0.05351875 -0.055002958
000140 80 d8 0c bd c0 ea c9 3b b6 89 64 bd a0 4a 2f bd
       -0.034386158 0.0061620176 -0.055795394 -0.042795777
000150 d0 74 64 bd b0 b6 ba bc 4a c3 38 bd 00 5c e5 39
       -0.055775464 -0.02279219 -0.045108117 0.0004374683
000160 e0 5b 38 3d 60 62 e7 3b b8 73 51 bd b8 80 08 bc
       0.045009494 0.0070612878 -0.05113575 -0.00833147
000170 ee ef 46 3d fe 32 2a 3d 70 f7 52 bc 90 06 8f bb
       0.04856866 0.041552536 -0.0128763765 -0.004364796
000180 a0 fb bd bb d8 0e 60 bc c8 43 4f 3c 7c 0b 3a bd
       -0.0057978183 -0.013675414 0.012650438 -0.04542111
000190 88 dc 35 bc 80 2a 48 ba b0 e4 8c 3b b8 1a a7 3c
       -0.011099942 -0.00076357275 0.0042997226 0.020398483
0001a0 04 fb eb bc e8 9d b3 3c 20 0f aa bb cc 09 14 3d
       -0.028806217 0.021925882 -0.0051897913 0.036142156
0001b0 6c 01 70 3d a0 3b ff 3b 38 bc 18 bc fc 3e c5 bc
       0.058595106 0.0077890903 -0.009322219 -0.024077885
0001c0 ac 91 de bc 60 51 72 3b d0 09 df bb 30 f6 36 bd
       -0.027169071 0.0036974773 -0.0068065897 -0.044668376
0001d0 e8 bc 05 bd ee 38 22 bd cc af 18 bd 64 25 ed bc
       -0.03265086 -0.039605074 -0.037277028 -0.028948493
0001e0 fe 9f 37 3d c0 d3 50 bc 18 26 26 bc b0 f9 72 bc
       0.044830315 -0.012745798 -0.010140918 -0.014830038
0001f0 10 b4 99 bb d0 cc 8e 3c 24 be fb bc 68 6d 7f 3d
       -0.0046906546 0.017431647 -0.030730315 0.062360197
000200 30 91 af bc 80 3c bb ba a8 5d e2 3c 88 a4 11 bc
       -0.021431535 -0.0014284998 0.02763255 -0.008889325
000210 6a 01 27 3d 4c cc c4 bc 5a cc 24 bd ec 5c 93 3c
       0.040772833 -0.024023198 -0.040233947 0.017988645
000220 84 50 d9 3c d8 5a fe 3c 6c 0e 5c 3d 6a 82 57 3d
       0.02652765 0.031049177 0.05372469 0.052614607
000230 98 a5 37 bc 80 46 3d 3d 58 68 b5 3c 70 b9 64 3c
       -0.011208914 0.046209812 0.022144482 0.013960227
000240 18 f7 6f 3c e6 eb 7e bd 3e 4f 4d bd 00 0f 3d bd
       0.014646314 -0.06223669 -0.0501244 -0.046156883
000250 3c 2e 2f bd b2 b9 0c 3d 68 2b 9f bc cc 5d d1 bc
       -0.042768702 0.03435678 -0.019429877 -0.025557421
000260 f0 82 12 bd 5c ad 98 3c 50 35 8d 3c 20 1d f6 bc
       -0.035769403 0.018637352 0.017237335 -0.030043185
000270 a0 b5 56 bc 68 89 68 bd 18 ac ae bc 0e 24 58 bd
       -0.013104826 -0.056771666 -0.021322295 -0.05276876
000280 64 c6 38 bd 20 f0 42 3d c0 d5 89 3c f6 4a 7b bd
       -0.045111075 0.047592282 0.016825557 -0.061350785
000290 d4 30 63 3d ac db 20 bd 7c 50 cc 3c 6c 2d 18 bd
       0.055466488 -0.039271995 0.024940722 -0.037152693
0002a0 2a c5 61 3d 32 9d 18 bd 48 fd 78 bc 48 d3 43 bd
       0.05511967 -0.037259288 -0.015197106 -0.047808915
0002b0 60 84 7f 3b 52 92 19 bd 04 4f 4e bd b0 8c bd bc
       0.0038988814 -0.037493058 -0.050368324 -0.023138374
0002c0 fa 7e 31 3d b2 52 5a bd f0 93 45 bc e6 7b 14 bd
       0.043333985 -0.05330152 -0.012059197 -0.03625097
0002d0 48 35 21 bc 86 f1 65 bd bc 9c ae 3c bc 2d 6c bd
       -0.009839363 -0.056138538 0.021314971 -0.057660803
0002e0 3c 37 89 3c d0 df f1 3c a6 2c 60 bd 12 3e 1c 3d
       0.01674997 0.029525667 -0.05473008 0.038145132
0002f0 84 f3 be bc 08 78 ff 3c f0 4a 99 bc 58 ba 8a 3c
       -0.023309477 0.031185165 -0.01871249 0.016934559
000300 08 d7 93 bc 90 d1 82 bc c8 27 3c 3c 20 24 05 3b
       -0.01804687 -0.015969068 0.011484094 0.0020315722
000310 a0 9f 01 3c d6 f6 06 3d 54 71 3f bd b8 ef 32 bd
       0.007911593 0.032950245 -0.046738937 -0.043685645
000320 8e 15 4b bd a0 5e 99 bb 04 35 0d 3d 24 b8 ca 3c
       -0.049581103 -0.0046804696 0.034474388 0.024746008
000330 b6 03 4b 3d 88 db dc 3c 9c 6b 5f 3d c2 8c 03 bd
       0.049564086 0.02696015 0.054545984 -0.03211666
000340 aa 68 20 3d 82 66 4b 3d 78 04 4a bc 34 f7 dd bc
       0.039162315 0.049658306 -0.012330167 -0.027095415
000350 22 cc 16 bd 18 70 68 3c d4 11 d5 3c 80 4c 38 bd
       -0.03681577 0.0141868815 0.026009478 -0.04499483
000360 80 01 59 3d f8 87 ce 3c c0 f9 99 3b 1e c8 08 bd
       0.052979946 0.02521132 0.004698962 -0.03339397
000370 b8 dd e0 3c b0 74 fb bb 02 03 50 3d 32 0b 07 bd
       0.027449474 -0.0076738223 0.05078412 -0.03296966
000380 20 3b 6d bd ce 4c 17 bd 10 11 93 3c 70 0d 09 bd
       -0.057917714 -0.03693848 0.017952472 -0.03346008
000390 10 24 82 3b 38 59 1f bc bc fd 5b 3d d6 0c 3b bd
       0.003971584 -0.009725861 0.053708777 -0.04566654
0003a0 d2 db 16 bd a8 9f 7e 3c 92 9e 54 bd 40 f8 66 bc
       -0.03683073 0.015540995 -0.051909037 -0.014097273
0003b0 e6 9b 7a 3d f4 3d c7 bc e0 fb 59 3d f0 28 f4 bc
       0.061183833 -0.024321534 0.053218722 -0.029804677
0003c0 00 23 96 bc 90 dc b1 bc 40 0d 7c 3d 84 29 09 3d
       -0.018327236 -0.021711618 0.061536074 0.033486858
0003d0 a0 07 8b bb a0 f4 ca bb 00 c1 fc bb 80 2b 7a bc
       -0.0042428523 -0.0061937124 -0.007713437 -0.01526916
0003e0 c0 c8 7b 3b f4 7f 09 bd a0 b8 5c 3d bc 8e ed bc
       0.0038419217 -0.03356929 0.05388701 -0.028998725
0003f0 44 ba 95 bc 0c c1 1b 3d e4 32 cd bc f4 3e ec bc
       -0.018277295 0.0380259 -0.02504868 -0.028838612

fc2.bias f4 [128]
000000 3c dc da bc 40 21 70 bd c7 50 0c bd 2e 46 d5 3c
       -0.026716344 -0.05862546 -0.034256723 0.02603444
000010 7e 22 66 3d 3b 85 f7 bd 92 50 8c bd b2 91 fa bc
       0.056185238 -0.120859586 -0.06851305 -0.030587051
000020 5b 1d 34 be c9 47 fb 3c 09 75 d7 bb 27 42 98 be
       -0.17589323 0.030673878 -0.006575231 -0.2973797
000030 48 36 a9 bc 65 78 cc be b0 52 3d 3e 94 2a d5 bc
       -0.020655766 -0.39935604 0.18488574 -0.02602128
000040 25 a0 6d 3e d6 37 42 bd cf 91 64 bd ca 0f db bc
       0.23205622 -0.04741653 -0.055803116 -0.026740927
000050 74 3f 9a 3c 64 0d 8b bc 64 4a 75 bc 2e 30 17 bd
       0.018829085 -0.016974159 -0.014971349 -0.036911182
000060 b4 ba bb bc 04 1c 26 3e ae d4 0e 3d 87 8e d8 bd
       -0.022916175 0.16221625 0.034870796 -0.1057406
000070 6b 3c 8a 3b 8e 66 25 bc b2 f6 02 be ef 63 8f bd
       0.004218628 -0.010095252 -0.1278942 -0.07001483
000080 b5 ed b0 bc aa be fc bd a0 b5 e1 bc af d7 8e bd
       -0.021597723 -0.12341054 -0.027552426 -0.06974732
000090 66 74 3b bc a9 64 90 bd 63 b2 2c 3e c7 3f 04 3d
       -0.011441326 -0.070504494 0.16864924 0.032287385
0000a0 ea f2 d7 bd 5c 8a ea bc f0 94 46 bd cc c7 bf bc
       -0.10544379 -0.028630428 -0.04848188 -0.0234107
0000b0 f6 dd ea 3b 3f 3f 15 bd 14 ae 16 bd 4e b2 0e bd
       0.007167573 -0.03643727 -0.036787108 -0.034838013
0000c0 22 9a a8 3d 0a aa 83 bd 74 b2 6c bd ef be 6a 3e
       0.082325235 -0.06428917 -0.057787374 0.22924398
0000d0 6b ee b3 3b 3c 80 48 bd 3e ec cb 3e 58 ae 3f bd
       0.005491068 -0.04895042 0.39828676 -0.046797127
0000e0 2d a5 6d b9 1b b8 67 bd 67 aa 25 3c c4 d0 bd bc
       -0.00022663614 -0.05657206 0.010111428 -0.023170836
0000f0 53 e9 86 bd 8a a2 20 3d ca 15 d7 bd b1 98 79 bd
       -0.06587472 0.03921751 -0.10502203 -0.060936633
000100 33 77 ef bd b6 74 30 3e 6f be 10 be 28 68 e9 3d
       -0.11692657 0.17232022 -0.14135145 0.11396819
000110 df dd 02 bd 6d 27 71 be f7 23 51 3d 8f 9f f2 bd
       -0.031949874 -0.23550196 0.05105969 -0.1184684
000120 a9 f5 0c 3c 95 8b bd 3c 7a 7e 4f bc 8e 0b 04 be
       0.008603492 0.023137847 -0.012664432 -0.12895033
000130 66 77 95 3b ca 9e 1b bc e4 22 1b 3d 80 b4 02 be
       0.0045613525 -0.0094983075 0.03787507 -0.12764168
000140 73 9d 99 3d 7a ad c3 bc 94 3a 13 bc 84 5e 04 3f
       0.07500734 -0.023886431 -0.008986134 0.5170672
000150 2d 9d 99 be e0 58 27 3d 47 f9 69 bd 13 59 99 bd
       -0.30002728 0.040856242 -0.057122495 -0.07487693
000160 e5 fe dc 3e ef 4a 51 3c db 97 7b bd 41 d2 a0 bd
       0.4316322 0.012774213 -0.061424118 -0.07852603
000170 d5 1e 90 bc cc 35 21 bd 9d 64 94 bd 9b fa 36 be
       -0.017592827 -0.039357945 -0.07245753 -0.17869036
000180 98 3e 2a bd 23 e3 43 3d f8 4d 99 bd 6d ee 07 be
       -0.0415636 0.047824036 -0.074855745 -0.13274546
000190 5b 7f 20 bd 4a 01 d1 bd 81 c6 1f 3f 38 fb e2 bc
       -0.039183956 -0.10205324 0.6241227 -0.027707681
0001a0 0f 5d a6 3c 00 1a b8 bd d7 50 36 3e 7a f8 64 bd
       0.020308046 -0.08989334 0.17804275 -0.05590103
0001b0 3e b2 1f be 45 48 9c bd 9a a4 36 3d 7a 57 de bd
       -0.15595338 -0.07630972 0.04459057 -0.108565286
0001c0 9f 5f 57 bd e3 70 a8 3e ee eb 78 3e 56 40 73 3e
       -0.052581426 0.32898626 0.2430875 0.23755011
0001d0 96 08 57 bd b8 9e 18 bd 30 0b 86 bc 45 49 58 3d
       -0.052498423 -0.03726074 -0.016362756 0.05280425
0001e0 95 1f e5 bd 36 11 a1 be 7d 55 4a bd d5 3f 3f bc
       -0.111876644 -0.31458443 -0.049397934 -0.011672934
0001f0 8f 68 35 3b 9b da bc 3c a9 a9 d8 3d a1 23 5f 3d
       0.002768073 0.023053458 0.10579235 0.054477338

fc3.weight f4 [3, 128]
000000 a0 12 99 bd ab 85 5a 3d 2c 98 7b 3d 58 a7 a1 bd
       -0.074742556 0.053350132 0.06142442 -0.078932464
000010 46 ca ed bf 73 8d 43 bf 1a 2f 13 bf 78 a1 5a bd
       -1.8577354 -0.7638771 -0.57493746 -0.053376645
000020 1d 13 df be e8 65 43 bf e4 81 09 bf 46 59 74 c0
       -0.4356927 -0.7632737 -0.5371382 -3.8179488
000030 b7 07 65 bd 21 b8 53 c0 d9 30 3a bf c0 91 ce 3e
       -0.05591556 -3.3081133 -0.72730786 0.40345573
000040 df ec 5e 3f 5a a8 08 bf d6 a0 9f bb d8 82 b5 3f
       0.87080187 -0.53381884 -0.004871468 1.4180555
000050 e0 65 95 bd f3 83 c2 bb 46 46 cd 3c e7 13 25 bf
       -0.07294822 -0.0059361397 0.025057923 -0.64483494
000060 a4 33 a6 bc 1b 27 e4 bf e4 85 6c 3c 1d 47 09 3f
       -0.020288296 -1.7824434 0.014436219 0.53624135
000070 ee eb b1 3c 0a b8 ae bc 5b c4 15 bf f0 b7 de be
       0.021718945 -0.021327991 -0.5850274 -0.43499708
000080 47 95 19 3d 1c a0 00 bf e4 c9 14 bf 10 d6 a3 3f
       0.037495878 -0.5024431 -0.5812056 1.2799702
000090 1b a0 94 3d c1 4d 16 c0 b6 5d 53 3f 2f 0b 93 bb
       0.072571 -2.3484957 0.82564867 -0.004487417
0000a0 3b 56 f0 be 57 88 10 bf e0 f0 e9 be 71 2b 0d bd
       -0.4694079 -0.5645804 -0.45691586 -0.034465257
0000b0 bd fa 95 3d 6e 8d 31 bd 43 07 ed 3c ee 9d 94 3d
       0.07323215 -0.04334777 0.028934127 0.07256685
0000c0 96 d3 95 3f 12 83 e6 be 28 6f 7f 3d c3 4d ac 3f
       1.1705196 -0.45021874 0.062361866 1.3461231
0000d0 45 43 93 3e a9 b3 97 3d 14 d8 82 be 33 f2 45 3d
       0.2876226 0.07407314 -0.2555548 0.048326682
0000e0 0e cb 18 bc d3 09 d2 3f b3 0a ba 3f 27 1a 33 ba
       -0.009325756 1.6409248 1.4534515 -0.0006832205
0000f0 7b d0 34 bd 19 4d 2e bb 8c d5 09 bf 28 77 1c bf
       -0.044144135 -0.0026596247 -0.5384147 -0.6111932
000100 c6 9a da be 82 ba bd bf 44 a3 f1 be 5f cb 1e c0
       -0.42696208 -1.4822543 -0.47194874 -2.4811628
000110 83 18 cd bc f9 48 3d bf 7d 04 b0 bd db c0 0f bf
       -0.025036102 -0.7393947 -0.08594606 -0.5615365
000120 36 62 db bf 50 a7 b0 3c a8 14 89 bf 8c 5a 17 bf
       -1.7139347 0.021564156 -1.0709429 -0.5912254
000130 da 78 87 bd b5 dc 1a c0 4e 19 41 3d 35 d6 e9 be
       -0.066148475 -2.419721 0.047143273 -0.4567124
000140 a6 e1 db 3f 1d 87 e6 3c 57 3e 39 3d 87 5a e3 3f
       1.7178237 0.028140599 0.045225468 1.7762002
000150 b7 b5 5f c0 03 2f d6 3c 2c a9 3d bc a9 da 77 3f
       -3.495466 0.026145464 -0.011575978 0.96818024
000160 b7 32 09 40 47 eb 6b 3a b9 ab 23 bd 13 23 68 3f
       2.1437204 0.00089995976 -0.03995869 0.9067852
000170 55 89 c5 3c d9 7d 00 be be b5 ff be 84 c8 07 bf
       0.024113337 -0.12548007 -0.49943346 -0.5304034
000180 69 f6 ef bc 34 32 37 bb 39 ee fb be 5c c4 0a c1
       -0.029292302 -0.0027953507 -0.49205187 -8.672939
000190 de 80 64 bc a1 41 14 bf d5 5d 67 bf 7f 01 8c 3c
       -0.01394674 -0.5791264 -0.9037755 0.017090557
0001a0 f6 53 9e 3d 10 61 1a bf 44 10 12 40 21 64 4b 3d
       0.07730858 -0.60304356 2.2822428 0.049656037
0001b0 cb 4a d8 be c3 13 ef be 13 08 0e c0 f0 d3 ca be
       -0.42244563 -0.46694764 -2.2192428 -0.3961482
0001c0 99 96 18 bf 49 90 5e bf af 06 79 3f 5f b4 5d bf
       -0.59604794 -0.8693891 0.97275823 -0.8660335
0001d0 8c 98 39 3d a8 90 04 3d b0 b7 a0 bd e6 1f a3 3d
       0.045311496 0.032364517 -0.078475356 0.079650685
0001e0 a1 cc 62 bf 57 ff 2f c0 a1 8d 47 3d a7 d3 25 3d
       -0.8859349 -2.7499597 0.048719052 0.04048505
0001f0 14 3b 13 bd bd b0 16 c0 56 b2 69 40 4c ef 98 3f
       -0.035945013 -2.3545372 3.6515098 1.1948028
000200 f9 dd e6 3c 71 84 6b ba d7 a6 3c 3d e8 38 0f bd
       0.028182017 -0.0008984274 0.04605755 -0.03496638
000210 a0 66 1a c0 9f e7 58 be 3c 0e 17 bf ba be de 3c
       -2.4125137 -0.21182106 -0.59006095 0.027190555
000220 0e fc 08 bf 0b d1 1e bf 8c f2 03 bf db 79 8a c0
       -0.53509605 -0.62037724 -0.5154197 -4.327375
000230 19 f0 4e 3d ee 1a 7a c0 05 ad 83 be 4e 4f 83 3e
       0.050521944 -3.9078937 -0.2571794 0.25646442
000240 80 8f 51 3f fd 75 01 bf 79 85 7f 3c 42 d1 97 3f
       0.8185959 -0.5057066 0.015595787 1.1860735
000250 69 ad 19 3d ac f2 86 bd 9e ee b1 bc 14 a4 06 bf
       0.037518892 -0.06589255 -0.021720227 -0.52594113
000260 3a b7 20 3c 45 22 52 bf 71 e2 7e 3d ed 43 6c be
       0.00980931 -0.8208354 0.06222767 -0.23072787
000270 4c 49 3d bd 34 f2 8f bd b3 75 ad be 5b 6b 1b bf
       -0.04621248 -0.070286185 -0.3387886 -0.60710686
000280 90 c8 0c 3e 68 90 15 bf ff 23 0e bf 44 b7 a5 bf
       0.13748384 -0.5842347 -0.55523676 -1.2946553
000290 ff d9 1a bb 31 aa 14 c0 da 90 78 3f ae 41 ae 3d
       -0.002362847 -2.3228877 0.97096026 0.08508621
0002a0 eb db fe be 13 a8 0a bf 69 41 10 bf b2 ca 88 3d
       -0.4977716 -0.5416271 -0.5634981 0.06679286
0002b0 95 80 af 3a 9b 1c 5d 3c 4d 05 94 3d 61 27 28 3d
       0.0013389761 0.01349559 0.072275735 0.04105318
0002c0 2d 9d bb 3f 8d fa fd be 5e b3 22 3d 84 18 18 3f
       1.4657341 -0.49605218 0.03972184 0.5941241
0002d0 d5 bf 2c 3f bb b3 64 3d b4 d5 bc 3f 79 a0 9e bd
       0.6748021 0.055835467 1.4752717 -0.077454515
0002e0 d4 3a 00 3d 75 90 e3 3f ea a7 c4 3f 47 c4 cf 3c
       0.031306103 1.777846 1.5363743 0.025362147
0002f0 01 02 11 3d ba fa 76 3d c0 a6 13 bf f0 c3 7f be
       0.0354023 0.060297705 -0.57676315 -0.24977088
000300 34 c3 09 bf 08 c1 2f c0 9a ef f8 be b3 bd 53 c0
       -0.5381348 -2.7461567 -0.486203 -3.3084533
000310 65 fe 94 3d df 20 c6 be 4d 59 7d 3d ed 41 e5 be
       0.072750844 -0.38696954 0.061852742 -0.4477686
000320 07 a0 ab bf 58 bf 98 3d b0 38 20 bf 0f 0b 16 bf
       -1.3408211 0.07458371 -0.625865 -0.58610624
000330 be 08 9d bc 97 33 9a bf d0 85 0a 3d 06 a3 01 bf
       -0.019169208 -1.2046994 0.03381902 -0.5063938
000340 e6 0f f0 3f 25 d5 a4 3d 4d 9b 67 3d 58 a3 23 40
       1.8754852 0.080484666 0.05654459 2.5568447
000350 91 3d 5e c0 a3 11 0a bd f4 d7 6b bc 8c cc 9d 3f
       -3.4725077 -0.033708226 -0.014394749 1.2328048
000360 41 0d 31 40 03 1a ad 3d e5 23 68 bd 71 ec 86 3e
       2.766434 0.08452227 -0.056674857 0.26352265
000370 21 58 85 3c 3f 6b 35 3e 9e 96 03 bf 1c c9 02 bf
       0.016277375 0.17716692 -0.514017 -0.5108812
000380 e3 dc 9e bd d7 7e d3 3c b9 ab 1b bf d5 db d9 c0
       -0.077569745 0.025817318 -0.608089 -6.808085
000390 1b f2 11 3d 30 ef d4 be 86 3b d3 3f d9 17 43 bd
       0.03563128 -0.41588736 1.650254 -0.047630165
0003a0 08 bb 37 3d e3 06 0d bf 1c 53 04 40 17 86 6f bc
       0.0448561 -0.55088633 2.0675726 -0.014619372
0003b0 4c 35 00 bf fd 0e fe be 68 ab 17 c0 d7 f4 19 bf
       -0.50081325 -0.4962081 -2.3698368 -0.6013922
0003c0 b6 21 17 bf fa 59 8e 3d 2d 02 76 3f 21 d9 59 3d
       -0.59035814 0.069507554 0.9609707 0.053185586
0003d0 2d e5 bc bc 0f 16 3b bd 1d 40 05 3d a0 e2 6e bd
       -0.023058498 -0.045675334 0.032531846 -0.058321595
0003e0 dd 7c 00 c0 52 e6 74 c0 cf 28 81 3d 48 84 39 bd
       -2.007621 -3.8265576 0.06306612 -0.04529217
0003f0 f1 fe 87 bd 63 b4 45 c0 de fd 63 40 3f 01 d7 bd
       -0.06640423 -3.089135 3.5623698 -0.104982845

fc3.bias f4 [3]
000000 f7 bf bd bd 1d 30 27 be 94 76 87 3e
       -0.0926513 -0.16326948 0.26457655
